Assets/Models/Model2.onnx (onnx, 996060 bytes, 16 tensors)

discrete_act_size_vector f4 [1, 3]
000000 00 00 40 40 00 00 40 40 00 00 34 44
       3.0 3.0 720.0

network_body.observation_encoder.processors.0.normalizer.running_mean f4 [27]
000000 69 29 fb 40 a0 15 b0 3f 6f b4 06 c2 00 00 00 00
       7.848805 1.37566 -33.676205 0.0
000010 37 3c 93 bc 00 00 00 00 ae 5f de bc 83 02 8f 3d
       -0.017973049 0.0 -0.027145233 0.06982901
000020 d3 2e c3 3d 9f 67 c4 3d d9 00 33 c0 42 5a db 3d
       0.095304154 0.09590077 -2.7969267 0.10710575
000030 06 f9 82 3e f8 e3 fc 3d b0 bf 78 c0 ff c4 2a 3f
       0.25580615 0.12348169 -3.8866997 0.6670684
000040 d1 75 5b 40 5a 7d d1 3e 07 f4 c6 c1 32 75 23 42
       3.429066 0.40915948 -24.869154 40.86445
000050 34 12 e0 41 95 64 c9 41 11 dc 27 40 07 aa e6 3f
       28.008888 25.174112 2.6228068 1.8020638
000060 8e 6c ce 3f 6d ea 56 37 f3 65 ab 3e
       1.6126878 1.28099755e-05 0.3347622

network_body._body_endoder.seq_layers.0.weight f4 [128, 27]
000000 21 11 88 bd 9f 8f 07 3d 8b 06 17 3e e4 7b 36 3e
       -0.06643892 0.033095952 0.1474859 0.17820698
000010 da 5c e5 be c1 eb 91 3d 83 dc 9e 3b ec 85 5f 3e
       -0.44797403 0.071250446 0.0048480644 0.21828431
000020 5e c3 02 3e 6e ba 0a 3e d5 bf 92 be 29 27 c6 3d
       0.12769839 0.1354768 -0.2866198 0.09675438
000030 e6 0d 27 3e 19 a6 27 3e 75 9a 83 3e 23 99 a3 bd
       0.16313896 0.16371955 0.2570378 -0.07988193
000040 d5 ac 76 be 7b ae 5e be b0 8e cc 3d cb cd e2 bc
       -0.24089368 -0.21746247 0.09988153 -0.02768602
000050 48 55 3c bc 82 dd 15 3e b7 55 83 3c 8f 8d 8e 3d
       -0.011494942 0.1463528 0.016032083 0.06960594
000060 8d bd ef bd c6 70 4c 3c 1f 1e e2 3d 66 e8 e7 3c
       -0.11706076 0.012478059 0.110409014 0.028309058
000070 ad e9 8b be 26 c2 1d 3d 14 43 2e 3c b3 ca 33 be
       -0.27326718 0.038515233 0.01063611 -0.17557792
000080 c8 55 a9 3c 01 8e 17 3d 06 fb 4f bd 82 a0 08 be
       0.020670786 0.03700066 -0.050776504 -0.13342479
000090 94 81 96 be 5f ac 78 bc 2e 07 e0 bc 62 02 c6 be
       -0.29395735 -0.015177815 -0.027347174 -0.38673693
0000a0 b5 93 c3 3e e8 57 c6 be d2 63 dc 3d 4e 8f a4 3d
       0.3819863 -0.38738942 0.10761227 0.08035146
0000b0 3b 5a 2b be 87 01 34 be 39 7d 46 bd 14 72 2e 3d
       -0.16733639 -0.17578708 -0.048459265 0.042589262
0000c0 41 0d 36 3d dd 56 4c 3d 56 bc 24 be 2b 87 20 be
       0.044446234 0.049887527 -0.1608747 -0.15676562
0000d0 a7 83 17 3e d5 87 b4 3e 66 01 1e 3e ac 80 34 3e
       0.14796315 0.35259882 0.15430221 0.1762721
0000e0 cb 1e a9 3e f0 9a b1 bb fa e6 99 bd c9 70 ba be
       0.33031306 -0.0054200813 -0.075147584 -0.36414173
0000f0 71 b4 f4 bd 5c 6b fe bb 70 59 bd 3d 38 11 60 3e
       -0.11948479 -0.007764263 0.092455745 0.21881568
000100 02 59 43 3e 73 50 0f bd ee fc b9 bd ac 42 09 be
       0.19076923 -0.03498883 -0.09081446 -0.1340434
000110 38 f1 b9 bd 4c 44 9c 3e 7d 84 c9 3d ee 49 07 3e
       -0.09079212 0.30520856 0.09839723 0.13211796
000120 d9 2e 44 3d 55 9f d3 3c 19 40 41 3e 2e d7 d1 3d
       0.04789624 0.025832811 0.18872108 0.102461204
000130 7b 6e 4f 3e b7 12 be bd 99 54 44 3d 3b a8 cb 3e
       0.20256989 -0.09280913 0.04793224 0.39776787
000140 94 86 0b be 54 52 8a 3d 97 37 df 3c 22 c5 81 3e
       -0.13625556 0.06753984 0.027248187 0.25345713
000150 14 ef c0 3d 0c d1 1d 3c 1f 4d 06 be d5 cd b0 bd
       0.094206005 0.00963236 -0.13115357 -0.08633009
000160 16 f4 25 bb 4c ef 4c bd 30 1f 80 3d 18 59 a2 3b
       -0.0025322489 -0.0500329 0.062559485 0.0049544685
000170 66 17 32 be a3 72 35 bc 87 67 8b be be cc 0d 3c
       -0.17391738 -0.011074695 -0.27227423 0.008654771
000180 91 1c 88 3e af 4d ac bd 6f a1 c8 be 0e db 0e 3c
       0.26584294 -0.084132545 -0.39185664 0.008719219
000190 74 54 11 be bc 1d 7f 3e 98 75 16 bd 0e 20 f0 bc
       -0.14192373 0.24913687 -0.03673324 -0.02931216
0001a0 1b 63 6d be 51 28 9b be 23 fa e8 3d 83 8b 69 3e
       -0.23182337 -0.30304196 0.11375835 0.22807126
0001b0 b1 8e de 3b 0f 55 7e be ae a4 b2 3d c7 3f c4 bd
       0.0067919125 -0.24837135 0.087228164 -0.09582477
0001c0 85 a1 11 be ef 95 70 3e 56 4a 91 3e c9 fe 15 be
       -0.14221771 0.23494695 0.28377026 -0.14647974
0001d0 42 96 2f be b7 e6 3a 3e de 79 4e be f6 3d 98 bd
       -0.17147163 0.18252073 -0.20163676 -0.07433693
0001e0 12 8b 7f 3d b7 8f 84 3d ee 64 39 3c 74 97 a4 be
       0.062388487 0.06472724 0.011315567 -0.321468
0001f0 2e 88 41 be 67 7f c2 3e f2 9e 1b 3e 24 b9 88 bb
       -0.18899605 0.37987825 0.15197352 -0.004172461
000200 63 22 39 bc de 42 38 be 1e d7 aa 3c 61 5e 8c ba
       -0.011299702 -0.17994258 0.020854529 -0.001070928
000210 63 d7 02 3e 4c ca 56 3e 1f 32 1e be 19 b6 6b be
       0.12777476 0.20975608 -0.15448807 -0.23018683
000220 e5 20 56 bd 87 a2 d0 3c 9c ce e3 bd 59 eb 14 be
       -0.052277464 0.025468124 -0.11123392 -0.14542903
000230 9f 10 01 3c 62 a6 5b be c2 7b 45 3d 25 01 ad be
       0.007877498 -0.21450189 0.048213728 -0.33789936
000240 82 67 49 3e fe ca 49 bc 2e 93 99 bd 2c bb 0a 3e
       0.19668391 -0.0123164635 -0.074987754 0.13547963
000250 88 67 4d be 67 2a 4c 3d 60 4f 0b 3e f1 28 c2 bc
       -0.20059025 0.049845126 0.13604498 -0.023701163
000260 43 51 63 3d 81 4f c1 be b4 fb 10 3e 57 bb db bc
       0.05549742 -0.3775597 0.14158517 -0.026822729
000270 7d 94 bf 3d c3 72 00 3e b5 c7 ae 3e 86 cd 31 be
       0.09354494 0.12543778 0.3413674 -0.17363557
000280 3e 8e 32 be 5c 86 cb bd 66 f0 85 3e 06 b1 18 be
       -0.17437074 -0.099377364 0.26159972 -0.14911279
000290 04 49 85 3e a9 91 07 3e c5 66 4a bd dc 88 08 bc
       0.2603227 0.13239159 -0.049414415 -0.008333411
0002a0 e6 28 c6 3e e5 90 81 3e 67 c8 aa 3e ea ce 17 3d
       0.38703078 0.25305858 0.3335602 0.037062563
0002b0 55 ac 9f 3d 09 19 21 3e d8 2a ca 3c b2 34 0a be
       0.077965416 0.15732206 0.024678633 -0.13496664
0002c0 d6 af 30 3e 33 b3 e1 be bf 01 28 3e f3 dd 42 3e
       0.17254576 -0.4408203 0.16406916 0.1902998
0002d0 9e f8 c5 bd b0 09 55 be 06 82 65 bc 77 d2 a6 3e
       -0.096665606 -0.20804477 -0.014008051 0.32582447
0002e0 35 0b 06 3b 6f c3 ff bd 6b d1 af 3d 98 a2 5a be
       0.0020453457 -0.12488448 0.08584865 -0.21351087
0002f0 42 05 a1 be b0 de b3 3e e7 e5 0f 3a 15 25 cf 3d
       -0.31449324 0.35130835 0.0005489275 0.10114495
000300 ca b6 22 bd 73 18 f6 be 6a ba 11 3d 83 c6 d4 bd
       -0.039725102 -0.48065528 0.03557817 -0.103894256
000310 7d 6b e1 bc 95 47 ac 3d bd 2a 2d 3e 57 09 b2 3d
       -0.027517075 0.08412091 0.16910835 0.08693188
000320 2f 89 da 3d 83 c2 28 bd 57 53 08 bd 8f 0a 40 be
       0.10670697 -0.041201126 -0.033282604 -0.18754028
000330 1d 32 08 bd 4a c7 e1 3e 12 f8 5a be cf 8d 91 be
       -0.033250917 0.44097358 -0.21383694 -0.28428504
000340 96 cc 50 bd 71 eb 51 3d da 5f 23 3e 5d 9d 23 be
       -0.05097636 0.051249925 0.15954533 -0.15977998
000350 f9 a2 65 3e f5 47 37 3d b2 eb 4e be 0a fa 1c 3d
       0.2242545 0.044746358 -0.20207098 0.038324393
000360 83 33 92 bd 66 d9 26 3c a4 60 77 be 5a 0e bd 3d
       -0.07138731 0.010183668 -0.24157959 0.09231253
000370 63 6a d9 be 45 a2 c5 3b 45 7a 07 bd 0f 02 39 3e
       -0.4246398 0.006031307 -0.03307559 0.18067192
000380 1a 7d c5 3c a9 6f 11 3e fa 88 c3 bd 9e 70 3b 3e
       0.024107505 0.14202751 -0.095476106 0.18304679
000390 85 0b 8a be 33 d1 a5 3e de 28 da bd ed 3b 96 3e
       -0.26961914 0.3238617 -0.10652326 0.29342595
0003a0 a8 a3 bb bd 5f ab f3 3d cb 3e 8d 3b 11 63 99 be
       -0.09162074 0.11897921 0.004310464 -0.29958394
0003b0 3f 56 b9 bd 7f 00 7d be 9b 0a 5a 3d 06 64 8c 3e
       -0.09049653 -0.2470722 0.05323277 0.27420062
0003c0 3f e1 10 be 92 31 87 3e be 5f bb be 8a cc 18 bc
       -0.14148425 0.26405007 -0.36596483 -0.00932611
0003d0 06 9d 86 3e b4 bd 9f 3e 87 fd 2a be df c7 26 be
       0.26291674 0.3119942 -0.16698276 -0.16287182
0003e0 6f 9e c3 bd 71 57 17 3e 49 62 7c 3d e0 ae 45 be
       -0.09551703 0.1477945 0.06161717 -0.19304991
0003f0 5e 2d 10 3e 94 05 77 3e 7a c6 b7 bd 45 0c 88 3e
       0.14079806 0.24123222 -0.08973403 0.2657186

network_body._body_endoder.seq_layers.0.bias f4 [128]
000000 c6 92 fb 3c b1 3f 1b bc 43 17 56 bc 4a 1a 07 3d
       0.030709635 -0.009475634 -0.013067069 0.032984056
000010 38 ba cf 38 d6 99 41 3d 79 b4 38 bb c2 e9 ca bc
       9.905215e-05 0.04726585 -0.0028183742 -0.024769668
000020 c7 e1 75 3c 56 bf 22 3c b8 12 11 3d 46 95 3c bb
       0.015007443 0.009933313 0.035418242 -0.0028775497
000030 73 5b cf 3a f9 83 7d 3c e0 b1 35 3c 95 95 ac bc
       0.0015820101 0.015473359 0.011089772 -0.02106742
000040 c1 bb 30 3d d6 bc ee 3c 8f 6c 63 3c 6d 60 cc bb
       0.043147806 0.029142778 0.013880863 -0.006237081
000050 77 df 62 3c 90 05 9e bb 68 8a 59 3b 3d aa fd 3c
       0.0138472235 -0.0048224404 0.0033194069 0.030964965
000060 ea 81 29 bc b7 ec c0 bc 63 40 51 3c f7 87 9a bb
       -0.010345915 -0.023550374 0.012771699 -0.0047159153
000070 fc 85 cd bb 58 ac 17 3d 54 18 66 bc c0 56 bb ba
       -0.0062720757 0.037029594 -0.014043886 -0.0014292821
000080 d7 d0 29 3c af 87 ac 3c 71 ad 19 bc 95 0b 97 3c
       0.010364733 0.021060793 -0.009379731 0.01843814
000090 b6 10 56 3c a9 d9 d0 3c 30 f2 da 3c f7 6f c1 3c
       0.013065508 0.025494413 0.026726812 0.02361296
0000a0 7b 93 3f 3c 33 00 64 bb bb 4a 0f 3d 5d d5 a9 37
       0.011692877 -0.0034790158 0.034983378 2.0245725e-05
0000b0 c7 d7 47 3d 57 5c c5 3c c5 ba b0 3c 88 6c 9a bb
       0.048789766 0.024091883 0.021573434 -0.004712645
0000c0 d1 77 e8 3b 09 c2 1a 3d 02 b4 32 3c df 2e 63 3c
       0.0070943614 0.037782703 0.010907175 0.013866155
0000d0 33 1b 89 38 cc fe 8a bb 23 2e af 3c cb 2e 7b 3c
       6.537735e-05 -0.0042418 0.021384304 0.0153309805
0000e0 36 44 04 3d b8 96 f9 3b 7f 9b c2 3b cb b2 40 3d
       0.032291614 0.007616844 0.0059389467 0.04704551
0000f0 df 75 89 bb 00 a7 23 3d 92 76 01 3d 95 f2 d3 3b
       -0.0041949595 0.039954185 0.031607218 0.006468127
000100 b1 90 84 bb 0e 4a 34 3d ad 56 98 3c 3b 47 69 3c
       -0.004045569 0.044015937 0.018596018 0.014238174
000110 41 66 d3 3c 9f 53 1f 3d 0e 8c c7 3c 02 1e 44 3c
       0.025805594 0.038898107 0.024358775 0.011970045
000120 98 b0 7d 3c 1b 13 78 bc b7 c7 11 bb 24 e9 3d 3c
       0.015483998 -0.015141274 -0.0022244283 0.01159123
000130 e2 9f fc 3c a0 b9 29 bc d6 72 83 3c a5 27 e4 bb
       0.030837957 -0.010359198 0.016045969 -0.006962734
000140 97 cb 02 3c a4 ce 02 bc 89 b8 18 3c 36 77 19 3c
       0.00798311 -0.007983837 0.00932134 0.009366801
000150 71 b8 f0 bc e7 9a e3 3c 71 26 14 bb 48 05 75 ba
       -0.029384824 0.027783824 -0.002260592 -0.0009346795
000160 2f 74 de 3a d6 13 17 3b 55 05 55 3b 3c 1a 8d bc
       0.0016971881 0.0023052595 0.00325044 -0.017224424
000170 b2 c2 c6 3b 4e 5e 0e 3d 68 07 cb 3c a0 a0 11 3c
       0.00606569 0.034757905 0.024783805 0.008888394
000180 f8 66 0b bc dd fe 0d 3d c4 9a a8 3c f0 33 01 3c
       -0.008508436 0.034666885 0.02058161 0.007885918
000190 ba 6a 64 3c 59 35 6a 3a 56 30 ac bb 4a d8 e4 3c
       0.013941461 0.0008934341 -0.0052547855 0.027935166
0001a0 a9 37 29 3d 9b 89 42 3d 76 9b 60 3c 93 2c 7c 3c
       0.041312847 0.047494512 0.01370894 0.015391487
0001b0 97 23 0a 3d cb ea 5a 3d 06 82 74 bc 9d fa 66 3b
       0.033725347 0.053446572 -0.014923578 0.0035244592
0001c0 61 7c 3c 3d 36 0c 60 3c ce ae 30 3d 0c ce 4f bc
       0.046017054 0.013674786 0.043135457 -0.012683403
0001d0 85 ee 7e 3b ad 9b 5f 3c 93 e4 cd bb e2 1d 2e 3d
       0.0038899493 0.013647956 -0.0062833517 0.042508967
0001e0 1d e4 34 3d b9 da 1b 3b 68 de 9d 3b 3e dd db 3c
       0.04416286 0.0023781492 0.0048177727 0.026838895
0001f0 fb a3 9a 3c ce 4c 68 3c eb e1 1d bb 98 b4 c4 3c
       0.01887702 0.014178468 -0.0024090956 0.024011895

network_body._body_endoder.seq_layers.2.weight f4 [128, 128]
000000 03 6d c9 bc c9 36 41 3d 6b 87 a6 bc b2 2a 13 3b
       -0.024588114 0.047171388 -0.020328244 0.0022455868
000010 68 fe eb bb 80 d3 41 3c b4 0c 3e 3e 48 09 7b 3c
       -0.0072019584 0.011830211 0.18559533 0.015322037
000020 44 3d 3c 3e 53 cb ee bd 2e 16 1e 3e 4c ce ad bd
       0.18382746 -0.11659875 0.15438148 -0.08486614
000030 c8 ab 0a 3e a4 5a d2 3d ba 3c 9e 3c 41 f3 7a b9
       0.13542092 0.102711946 0.019316066 -0.00023932477
000040 20 67 e2 3d 5d 66 84 3d 72 20 63 bd 1f 9d 10 3d
       0.11054826 0.06464837 -0.055450864 0.035306092
000050 60 4b d2 3d c5 d2 00 be d9 2c 54 3d bf 61 42 3d
       0.10268283 -0.12580402 0.051800583 0.0474565
000060 ab 12 c3 bc 62 6e d3 bd ef a4 a3 bd 7c 23 21 bc
       -0.023812613 -0.10323788 -0.07990443 -0.00983512
000070 02 fb 59 be 1f 79 ba 3d e1 aa fc 3d ce d8 99 3d
       -0.21287158 0.09105133 0.1233728 0.07512055
000080 f8 bb 47 bc cb cf 00 be 54 1b b6 3a 54 c9 2b bd
       -0.012190811 -0.12579267 0.0013893642 -0.04194005
000090 5e bc 27 bc 97 7d 0a 3d a6 9f 9c bd 39 6d 07 be
       -0.010237781 0.033811178 -0.07647638 -0.13225259
0000a0 5c 78 56 bd c2 e0 5c bd 19 7c 9c bc 2f a2 b1 bd
       -0.052360877 -0.053925283 -0.019102143 -0.08673512
0000b0 2f af 20 3d 12 43 06 3e ed 52 1c 3e 53 61 13 3e
       0.039229568 0.13111523 0.15266009 0.14392595
0000c0 25 40 51 3c c6 54 60 3d d8 25 d5 bc 45 aa ad 3d
       0.012771641 0.054768346 -0.026019022 0.08479742
0000d0 cc 50 5d 3e 9d be 02 be 4d 8e d0 bd 91 3c 21 3e
       0.21612853 -0.12768026 -0.10183392 0.1574576
0000e0 64 35 06 3e f4 79 a0 3d 82 a6 1f be cb bc 67 3c
       0.13106304 0.07835761 -0.15590861 0.014144133
0000f0 2f 48 80 3d 6a e8 09 3d 2b 0f 24 3b 0b 22 a5 bd
       0.06263768 0.033668913 0.0025033455 -0.08063134
000100 70 2a 81 bd e9 0b 94 3d db 7b b2 3d b6 18 19 bd
       -0.063069224 0.07228834 0.0871503 -0.03737708
000110 86 16 66 3d 0c 0d f6 3b 5d 5b 21 3e 73 12 09 be
       0.056173824 0.0075088795 0.15757509 -0.13385944
000120 1d db c3 bc c8 57 ea bd fc 77 a7 bd 41 95 8e 3e
       -0.023908192 -0.11442524 -0.08177182 0.27848247
000130 9a b6 ac bd 3e 24 77 bb 8d ea eb bd 4e d7 25 3d
       -0.08433266 -0.003771081 -0.115193464 0.040488534
000140 ce fc d8 bc 92 45 fb 3b 59 e3 01 3e 3b 79 55 3d
       -0.026487734 0.0076682055 0.12684382 0.052117568
000150 c0 29 3a 3d b8 c1 b1 bc 5b 31 f3 bd 9c 77 34 3c
       0.045449972 -0.021698818 -0.11874648 0.011014845
000160 34 8f fb 3d ea 51 c9 3a 15 a6 b9 bd e2 03 f6 3b
       0.12283173 0.0015359495 -0.09064881 0.007507787
000170 83 69 42 bc 81 8d 1c 3c 4c 3f a4 bd b0 a8 85 bd
       -0.011865976 0.009555222 -0.080198854 -0.06526315
000180 89 85 3b 3e 51 17 d0 bc 24 f8 2f bd 41 a0 15 3e
       0.18312658 -0.025401743 -0.042961255 0.14611913
000190 c5 57 5f be 85 ea 63 3b 0b 30 a0 bd 7b 43 10 3d
       -0.21810825 0.0034777236 -0.078216635 0.035220604
0001a0 ca bd c2 b8 3b 63 44 3d 13 ff 40 bd a4 d1 8f bd
       -9.285992e-05 0.047946196 -0.047118258 -0.07022408
0001b0 c5 09 19 3d e8 00 02 be e1 39 09 3e 6a 10 93 bd
       0.037362833 -0.12695658 0.13400985 -0.07180865
0001c0 40 8a 5b bc 52 46 80 bc 5d 52 40 3b 7b 5f e4 bc
       -0.013399661 -0.015658531 0.0029345967 -0.02787756
0001d0 22 54 89 bd 8a 61 d3 3c 34 be bc bd a7 a5 3d 3d
       -0.067055 0.025803346 -0.09215966 0.046300557
0001e0 ff cc 01 3d b9 8e 14 3b 12 da 84 bd fe 7f 92 3d
       0.03168964 0.0022668077 -0.06486906 0.07153319
0001f0 5f da c8 bd 88 87 01 3e 23 d8 7a bc 70 68 2f 3d
       -0.09807276 0.12649357 -0.01531032 0.04282421
000200 52 69 23 bc d1 eb 11 3d 98 0c 12 be c5 1f 12 bd
       -0.009973841 0.035625283 -0.14262617 -0.03567483
000210 ea 47 3d 3d 82 57 2c be 55 fe 27 3c 0c 26 d9 3c
       0.04621116 -0.16830257 0.010253509 0.0265074
000220 7f 0a 4f 3d 25 07 82 3d 3e 9c 17 bd 19 9f f4 3d
       0.05054712 0.06349019 -0.03701424 0.11944408
000230 ed 8d b9 bd 2b be 8d bd ec 7f c1 3d 07 9d 61 3d
       -0.09060273 -0.06921037 0.09448227 0.055081394
000240 f5 0e 27 3c 65 8d d0 bc 42 fb b8 ba 20 eb cc 3c
       0.010196437 -0.025458047 -0.0014112967 0.02501446
000250 20 8c f4 bd 56 5b 03 3d d2 26 54 3d b6 76 c0 bd
       -0.11940789 0.032069527 0.051794834 -0.09397642
000260 ec fa 33 3d 44 76 fe bb 71 01 a2 bd 95 e4 46 bc
       0.04394047 -0.007765563 -0.07910431 -0.012139459
000270 b4 5b d8 3c 1e 29 d4 3d ad 5e f3 bc 96 70 a1 3d
       0.026410915 0.10359405 -0.02970823 0.07882802
000280 3b ac 7f bd 35 10 2c ba c4 a0 fd bc f7 64 1a be
       -0.06242011 -0.00065636943 -0.030960448 -0.15077578
000290 02 ce 95 bd 21 70 bc bd 3b 39 1e bd d7 c2 cf bc
       -0.073146835 -0.092010744 -0.038628798 -0.025361462
0002a0 9c 9f 9e bd 36 bb 81 3d 63 bb 81 3d 13 f9 06 3e
       -0.07745287 0.06334536 0.06334569 0.13180952
0002b0 9a f1 92 bd 45 f5 41 be 63 04 fd 3c e5 9c 26 be
       -0.07174988 -0.18941219 0.03088588 -0.16270788
0002c0 32 93 13 3c 63 f9 97 bd 8f fa 90 3d d0 4f c4 3d
       0.009007262 -0.074206136 0.0707904 0.095855355
0002d0 09 32 ec 3d 02 9b 14 be 09 c6 03 3e ac c8 08 be
       0.11532981 -0.14512256 0.12868513 -0.133578
0002e0 62 c1 0d 3d b4 7b 8b 3d 96 95 2d 3e 92 f8 a5 bd
       0.034608252 0.06810704 0.16951594 -0.08104052
0002f0 e1 c3 65 bd f5 3c 63 bc 71 e8 e9 3d ff 60 b0 ba
       -0.056095008 -0.013869514 0.11421288 -0.0013456641
000300 9e e0 78 3d 06 59 88 bd 5f ea 50 bd ff 00 82 bc
       0.060761087 -0.06657605 -0.051004764 -0.015869616
000310 88 a9 4f 3b e4 4c 24 3d d1 8b 48 3d 78 00 87 3d
       0.0031686742 0.04011239 0.048961464 0.06591886
000320 7c 7d 68 bb c7 44 a1 bd aa 07 58 be a7 02 d0 bd
       -0.0035475185 -0.07874446 -0.21096674 -0.10156756
000330 ed 43 a3 bd 64 ad 57 bd 4e fa 23 be d2 5a 7e 3d
       -0.0797194 -0.052655593 -0.16013452 0.06209833
000340 b0 7b 3c 3d 3c aa 2a 3e 58 72 0a bc 62 0b 4b 3b
       0.046016395 0.16666502 -0.008450113 0.0030982126
000350 8c d7 aa 3d f6 29 88 bd 0c 4a 2e 3d e2 36 13 3d
       0.083418936 -0.066486284 0.042551085 0.035941012
000360 42 ab d1 bc f4 13 6c 3d 2e 23 88 3e 4f 29 8c bc
       -0.025594357 0.057636216 0.2658934 -0.017109541
000370 2f 4d f3 3c 86 67 95 3d 1f d5 37 be f6 19 b2 3d
       0.02969989 0.07295136 -0.17952393 0.08696358
000380 a0 a7 2f 3e 3d 0e f4 3c e4 7d e3 bd 52 8f 14 3b
       0.17153788 0.029791946 -0.11107996 0.0022668433
000390 f7 d8 57 3b 1f 25 65 bd 81 8f 36 bc 8b 23 ea 3d
       0.0032935718 -0.055943605 -0.011142612 0.114325605
0003a0 25 4e 32 bd 11 30 92 bb 80 62 70 bc 31 4f cb bd
       -0.043531556 -0.0044612964 -0.014671922 -0.09927214
0003b0 ab 68 0d be 18 1f b6 bc 48 a9 ba 3d b6 c5 86 3d
       -0.13809459 -0.022231624 0.09114319 0.06580679
0003c0 63 25 67 be 0a 60 93 bb cb a4 59 3e 09 b3 b7 bd
       -0.22572856 -0.0044975327 0.2125427 -0.08969695
0003d0 4b c1 6b 3b 25 cd 05 3d b7 7c 45 bd c8 44 c7 3c
       0.0035973366 0.032666344 -0.04821464 0.02432479
0003e0 7e bc 0e be d4 0c 2b bd 5e 6f 21 bd 15 69 eb bd
       -0.13939092 -0.04176028 -0.03941285 -0.11494652
0003f0 c6 71 25 be 67 b3 96 bd 44 44 9c 3d c4 a6 52 3e
       -0.16156682 -0.07358437 0.07630208 0.20571429

network_body._body_endoder.seq_layers.2.bias f4 [128]
000000 bf dd 80 bb 84 c2 61 bc df 9e db bb 6b 5f fe bc
       -0.003932684 -0.013779286 -0.0067022885 -0.031051358
000010 ab f1 12 3c ca 72 7e 3c 38 a2 37 3c 6b 6f 0e 3d
       0.008968751 0.0155302975 0.01120811 0.034774225
000020 30 86 6e 3b 86 88 7a bb 88 73 45 3c e2 67 4b bc
       0.00363959 -0.0038228347 0.012051471 -0.012414904
000030 f8 ed 67 3c 94 67 a2 3b a5 b5 28 bc e7 76 7f ba
       0.014155857 0.004956195 -0.010297214 -0.0009745196
000040 b2 b3 bc 3c 05 d5 82 3c 64 30 a6 bc 4c 74 c8 3c
       0.023034904 0.015970716 -0.020286746 0.024469517
000050 42 32 df 3b c5 50 b5 3b 14 8f 11 3a e3 cc 5e 3c
       0.006811411 0.00553331 0.00055526313 0.0135986535
000060 f2 75 e8 3c df d6 ab 3b 58 40 e8 bb d3 51 83 bc
       0.028376553 0.0052441205 -0.0070877485 -0.016030228
000070 f3 90 79 b9 b5 5f 16 3c 91 61 b4 3c 3f ab 9c bc
       -0.00023800488 0.009178092 0.02201918 -0.019124625
000080 a2 a5 00 bb 6b 1b 07 bc 8b cd c2 3c 59 fb 96 bc
       -0.0019629975 -0.008246283 0.023779651 -0.018430399
000090 2c 68 a4 bc af d8 5d 3c b9 75 b9 3a b5 35 42 bc
       -0.020069204 0.013540431 0.0014149464 -0.011853625
0000a0 49 f3 03 bd fb ff 90 3c da 26 c5 3a 02 a6 96 3a
       -0.032214437 0.017700186 0.0015041486 0.0011493566
0000b0 50 9d 35 3b c4 4b 19 bc ff 58 f3 3c 5e 4e 9a 3c
       0.0027712174 -0.009356443 0.029705523 0.018836197
0000c0 0b 69 60 3c cd fb dc bb bb d3 39 bc 57 b8 85 3a
       0.013696919 -0.006743884 -0.011341984 0.0010202032
0000d0 63 69 bb 3c 27 91 88 bb 2d 72 94 ba c8 24 ca 3c
       0.0228774 -0.004167694 -0.0011325531 0.024675742
0000e0 97 e1 fd 3b c9 71 1e 3d 3c 7b b8 3b 6a a5 34 3b
       0.0077478397 0.038682733 0.005629925 0.0027564415
0000f0 9c cf 9a bc 95 78 06 bd 81 cf 3b 3d d1 aa b9 bc
       -0.018897824 -0.03282984 0.045852188 -0.02266446
000100 bc 6a 97 bc cb 53 67 3b cb 16 19 3c 78 fb b9 3c
       -0.018483512 0.0035297747 0.009343813 0.022702917
000110 47 75 a4 bb fd c1 09 3d 52 07 97 3b 73 c7 ce 38
       -0.0050188634 0.033632267 0.004609027 9.859996e-05
000120 4d 2e a1 3c 90 09 04 bb 96 84 06 3d f3 ea 7c 3c
       0.019675398 -0.0020147301 0.032841288 0.015436876
000130 fa f7 24 bc 2f 5a 67 3c 24 b0 80 bc 08 64 80 3c
       -0.010068888 0.014120623 -0.01570899 0.015672699
000140 ec c0 5f ba 7c 5d 98 3c f9 09 eb 3c 64 6a b9 3b
       -0.00085355225 0.018599264 0.028691279 0.0056584347
000150 0b 24 f4 bb 6a ef 48 3c 81 1c 03 3c 1a 0b 6f bc
       -0.0074505857 0.012264112 0.008002401 -0.014590049
000160 05 df 00 bc a6 3a 18 3c 72 87 ae bc 4a 71 80 bc
       -0.007865672 0.009291327 -0.02130482 -0.01567902
000170 71 55 c9 3c 08 17 27 bb 86 5f 01 bc e1 5e 2a 3d
       0.024576874 -0.0025495905 -0.00789631 0.04159439
000180 e6 ae bc bb 52 66 02 3c 9c d2 16 3d 33 08 0b bb
       -0.005758154 0.007958965 0.036821947 -0.0021214604
000190 2d 80 8e bb 5d 0b 89 ba db 1f 9b 3c 0e e7 60 3c
       -0.004348776 -0.0010455657 0.018936088 0.013726963
0001a0 8f e8 b6 bc 06 bf d5 bc 50 1b 71 3c a0 2a b3 3c
       -0.02232769 -0.026092064 0.014715984 0.021870911
0001b0 84 40 b3 3c dd 86 11 3b 24 54 29 bc 5d 7a 71 3c
       0.02188135 0.002220563 -0.010335002 0.014738646
0001c0 50 7a 17 3c 51 7b a0 bb 32 ab 12 bc 32 a7 cd bc
       0.00924547 -0.004897513 -0.008951949 -0.025104139
0001d0 52 a1 e8 3c 03 e8 87 3c 00 d7 b9 3c 4a 72 2d bb
       0.028397236 0.016590124 0.022685528 -0.0026465827
0001e0 29 76 10 3c cd 13 94 3b 87 23 c3 bb 57 5a 52 3c
       0.008817234 0.004518962 -0.005955163 0.0128389215
0001f0 94 ba 32 3c 6f 6a 67 3d bc 03 fb 3c 67 de 06 bd
       0.0109087415 0.056497987 0.03064143 -0.032926943

action_model._discrete_distribution.branches.0.weight f4 [3, 128]
000000 de 14 c6 bc 69 41 35 bc 54 6c 5f 3d b0 00 b1 3b
       -0.024179872 -0.011062958 0.05454667 0.0054016933
000010 68 79 26 ba 36 86 ad 3b 99 e9 8f bc 7d ae 59 bd
       -0.00063504884 0.00529554 -0.017567443 -0.05314492
000020 e2 a3 0f 3d d2 d7 e2 bb 93 51 0a bd 4f 3e b7 bc
       0.0350684 -0.0069227004 -0.0337692 -0.022368578
000030 d0 1b e8 bc 45 9f 03 3b 34 12 69 3d 0f ce f0 ba
       -0.028333575 0.0020083946 0.056902125 -0.0018371957
000040 1a 93 6e bd 2b a5 d8 bc 2c fd 42 bd 11 d3 de 3b
       -0.058245756 -0.026445946 -0.047604725 0.0068000634
000050 53 5f 92 bc dc ee cc 3c af 9b e4 3c 4f b6 c2 3c
       -0.01786772 0.02501624 0.027906267 0.023768572
000060 a6 75 a3 3b 49 bc 64 3d 07 79 87 bc 57 f1 a7 ba
       0.00498839 0.055843625 -0.016537203 -0.0012813014
000070 83 e7 32 3b 82 d7 ab ba 41 12 14 3c 12 60 16 3d
       0.0027298636 -0.0013110491 0.009037555 0.036712714
000080 5b 1f 02 bb 82 f6 7e 3a ee 67 cd 3c 56 30 a5 bc
       -0.0019855115 0.00097260636 0.025073972 -0.02016465
000090 10 48 6a bc e8 a1 54 bc 1e 77 f6 3c a7 11 59 3c
       -0.014299408 -0.012978055 0.030086096 0.013248838
0000a0 55 18 a2 bc a5 b0 1d bd 23 b1 40 bd 03 05 0a 3c
       -0.019786993 -0.03849854 -0.04704393 0.008424046
0000b0 95 fe b2 3b 31 32 1a 3d c1 35 47 3c 24 11 00 3d
       0.0054624774 0.037645523 0.012158812 0.031266347
0000c0 1b 4b 64 bc 57 fe db bc fc a9 01 bd b0 3d a0 bb
       -0.013933922 -0.026854677 -0.03165625 -0.004890166
0000d0 47 c3 05 3d be 7f fc ba 47 32 bd bb 3c 7d 28 3c
       0.032656934 -0.0019264144 -0.005773816 0.010283764
0000e0 e8 64 1d 3d ed 58 1d bd 3d 37 6a bd a7 6a d9 bc
       0.03842631 -0.038414884 -0.057181586 -0.026540114
0000f0 4e c5 f7 3c 8b b7 c0 3c 0f d1 41 3d 44 7d 73 3d
       0.03024545 0.02352502 0.047318514 0.059445634
000100 94 c8 66 3d c8 53 c2 ba 3a 03 69 bc 71 69 6b bb
       0.05634363 -0.0014825994 -0.014221961 -0.0035921002
000110 40 2b 6e 3b 87 fb 84 bd b6 16 28 3c 75 62 80 bc
       0.0036341697 -0.064932875 0.010259321 -0.015671948
000120 b1 25 12 bc 57 be 05 3d 82 a2 4f 3c c5 39 ca bb
       -0.008920119 0.032652225 0.012673022 -0.0061714374
000130 eb 51 bc 3b e5 46 3e 3c 7b 04 d1 3c d8 ca 69 3d
       0.00574707 0.011613582 0.025514832 0.057078212
000140 d3 88 01 3d eb 31 0b 3c af 2e a1 3c 06 00 fd bc
       0.031624626 0.008495788 0.01967558 -0.0308838
000150 63 7e 4c 3d d0 2e 12 bc b6 b5 85 3c 80 e1 d5 3c
       0.04992522 -0.008922294 0.016321998 0.026108503
000160 d6 56 12 bd 7c 89 6d 3c 46 38 b6 bd 45 ca a7 bc
       -0.035727344 0.014498111 -0.08897452 -0.020482192
000170 f9 fe b5 3c 6b 8f 44 bc 6a d0 b4 3b f8 df 77 3d
       0.022216307 -0.011997084 0.005518009 0.060516328
000180 ca c4 57 bd 2e 97 c2 3b 29 3e 2a 3c 1d 1b 07 3d
       -0.052677907 0.005938432 0.010390797 0.03298484
000190 9a 05 de 3c f4 15 0f bb 11 72 34 bd cd 4f 6b bd
       0.02710228 -0.0021833153 -0.044054095 -0.05744915
0001a0 fa 02 25 bc ba 3b 8c 3c 67 a2 69 3c 08 c2 02 3b
       -0.01007151 0.017118324 0.014259911 0.0019952077
0001b0 80 62 15 3d 92 d4 6a bd 7e 4e 56 3d c3 b2 82 3c
       0.03647089 -0.05733163 0.05232095 0.01595438
0001c0 66 55 f3 bc fc 62 44 bc 96 b9 12 bd cd 1d 02 bb
       -0.029703807 -0.01198649 -0.03582152 -0.0019854188
0001d0 22 6d 33 3d 86 97 46 3c 75 fa 93 3c 03 5c 9a 3c
       0.04380525 0.012121087 0.018063763 0.018842703
0001e0 5a b8 00 bd 20 c2 8b 3c 64 98 69 bd 33 53 89 3d
       -0.03142581 0.01706034 -0.057030097 0.06705322
0001f0 01 6b 55 3c 6b 71 0a 3c 64 20 d9 3c 07 76 00 3d
       0.013026 0.0084498925 0.026504703 0.03136256
000200 4c 9d 24 bc 6b 94 5c bc 4d fc d9 bc 56 3c 0d 3d
       -0.010047268 -0.01346312 -0.026609564 0.03448137
000210 22 6a c4 bc e8 9f df 38 88 0d 1b 3d d7 72 11 3d
       -0.02397639 0.000106632535 0.0378547 0.03550991
000220 df a7 ac bc 4e 5c 23 3d 5b fa 89 3c 1a 63 e6 ba
       -0.02107614 0.03988295 0.016843012 -0.0017577142
000230 5b 5e ad 3c cd 29 cb 3a 69 9b 29 bd 88 47 3e 3b
       0.021163156 0.0015500129 -0.041407976 0.0029034335
000240 61 dc af 3c 49 2d 0d 3d 66 67 82 3c fe 07 77 bb
       0.02146739 0.034467015 0.015918445 -0.0037693973
000250 f7 f2 18 3c ee 5e 83 3b 8a 03 14 bd 02 ed 76 3c
       0.009335271 0.0040091192 -0.036136188 0.0150711555
000260 6f 0c 05 3d 56 ce d6 3c b6 fc 98 3c 14 2e 71 3c
       0.03248256 0.026221436 0.01867519 0.014720459
000270 4d bb 48 bd f2 0b 68 3b be 29 82 3c 49 df 8b bc
       -0.04900675 0.003540751 0.015889045 -0.017074244
000280 82 7e cf bb 26 92 11 3c 09 44 e7 bb e2 24 62 3b
       -0.0063322196 0.008884942 -0.007057671 0.0034506847
000290 d3 08 ac 3c 4e 8f f1 3c f0 17 32 bd 45 47 fb 3c
       0.021000301 0.029487278 -0.04347986 0.030673632
0002a0 94 50 73 bc e4 d9 d4 3c e1 d5 b5 3c 47 2d 8c 3c
       -0.014850754 0.025982805 0.022196712 0.017111434
0002b0 ed 9e 96 3c e0 fb 74 bd 8b c4 14 bd a5 68 40 bc
       0.018386329 -0.05981052 -0.03632025 -0.011743699
0002c0 86 df 99 bc c6 ce 4a bc 8f f6 0d 3d dd 5f d0 bb
       -0.018783342 -0.0123784 0.034658965 -0.006359084
0002d0 ab c9 28 3d d6 52 51 bc 5c be 8a 3b be b4 d4 3c
       0.04120795 -0.012776097 0.0042341184 0.02596509
0002e0 47 cc 42 bc 2c 42 c9 3c 39 a2 bb 3c 8b 38 4c 3c
       -0.011889524 0.024567686 0.022904502 0.012464653
0002f0 a7 7a b5 3c f1 b5 10 bc e3 e1 27 bd 99 23 7b bd
       0.022153212 -0.008832441 -0.040986907 -0.061313245
000300 9b d1 cd bc ed a2 47 3c 00 ad d7 3a 3a 26 ed bc
       -0.025124362 0.012184841 0.0016454756 -0.028948892
000310 cf c5 56 bc 4f e7 26 3d ed 3e 09 3c 3f d9 a6 3c
       -0.013108685 0.040747937 0.008376819 0.020367263
000320 d5 7e 30 3c e3 75 81 3c 5e 6b 0a 3d 58 c8 72 39
       0.010772427 0.015803283 0.0337938 0.00023153552
000330 2b f7 04 3c 7f c0 bd 3c 71 5b 8e 3c e6 7f c1 bb
       0.00811557 0.023163078 0.017377587 -0.0059051393
000340 d0 4a 78 bb 60 50 08 bd 61 2b ac 3b 71 96 2b 3d
       -0.0037886389 -0.033279777 0.0052541946 0.04189152
000350 be 93 71 bd c7 3a f8 3c 91 b3 02 bc 92 44 8b bc
       -0.05897879 0.030301465 -0.007977382 -0.01700047
000360 e6 2c d5 3c 9f 94 21 bd d2 96 3f 3c c1 1d 82 3b
       0.026022386 -0.039448377 0.011693673 0.003970832
000370 dd a7 b5 bc f2 9e af 37 1c 8a 42 bc 2e de 49 bc
       -0.02217477 2.093564e-05 -0.011873748 -0.012321038
000380 23 68 48 3d d3 69 56 bd d0 0e e3 3c 49 08 db bb
       0.048927438 -0.052347016 0.027717024 -0.0066843373
000390 d1 e3 3e bd 02 30 00 3c 96 ef 2d 3d ce 5a 80 3d
       -0.04660398 0.007823946 0.042464815 0.062673196
0003a0 4f 06 28 3d 57 77 88 bb 3b be 8e 3c 00 5d cd 3c
       0.04102164 -0.004164617 0.017424693 0.02506876
0003b0 5f fb 67 3b 9a bc 97 3c 3b 03 22 bd 48 e5 16 bc
       0.0035397632 0.01852255 -0.039553862 -0.009209938
0003c0 43 5e e9 3c 1a d2 ab bc d8 f0 b3 3c 95 e5 86 bc
       0.02848733 -0.020974208 0.02196543 -0.016466895
0003d0 76 2e 7c bc f2 a7 1d 3c 34 49 da bc 83 64 73 bb
       -0.0153919365 0.009622561 -0.026646234 -0.0037138767
0003e0 65 d8 8f 3c d8 41 eb bc 80 c5 09 3d 1f 2f fc bc
       0.01755924 -0.02871792 0.033635616 -0.030784188
0003f0 f1 4e 3c 3a 90 3e bf bb 9a ba 7e bc 8f a6 bb 3b
       0.0007183394 -0.0058363155 -0.015547419 0.0057266424

action_model._discrete_distribution.branches.0.bias f4 [3]
000000 e0 42 65 3c 92 b9 a9 bc b6 32 d2 3b
       0.013992995 -0.02071837 0.0064147366

action_model._discrete_distribution.branches.1.weight f4 [3, 128]
000000 89 b7 eb 3c 24 9c 6d 3b bd 17 4a 3b 1e 11 a1 bc
       0.02877404 0.0036256397 0.0030836903 -0.019661482
000010 b0 9b de bc 16 fd 23 3c a5 38 6d bd 8c 3f 08 3c
       -0.027173847 0.010009071 -0.05791535 0.008315932
000020 ac 0d c3 3c 4c e0 a0 3c da 9e 11 bd ff 10 a0 3d
       0.02381023 0.019638203 -0.035551883 0.07815742
000030 65 bb 3b bb a2 ea 0d bd 30 d0 11 bd e9 d9 ac bc
       -0.0028645631 -0.03464759 -0.035598934 -0.021100001
000040 60 bd 5b 3a ee 1c 21 3c 23 8b f0 3c f5 09 aa 3c
       0.0008382406 0.0098335575 0.02936322 0.020756701
000050 c0 32 77 3c 96 52 2c bc c0 c5 54 ba cc 77 7b bb
       0.015087783 -0.010517737 -0.0008116625 -0.0038370965
000060 07 16 97 bd fb 7f 08 bc 38 1e af bc ee f3 35 3d
       -0.07377248 -0.008331294 -0.021376714 0.044422083
000070 f2 9f 67 bb 87 f3 38 bd 42 c1 5a bc 99 7f 2d bc
       -0.0035343138 -0.04515412 -0.01335174 -0.010589504
000080 70 13 0e 3d 55 34 43 bd 01 92 ea bb e4 02 f1 3c
       0.034686506 -0.04765733 -0.0071585183 0.029420324
000090 37 bc 29 bd e9 8b 11 3d 64 ac 39 bc 9a 0a 7e bd
       -0.04143926 0.03553382 -0.011332605 -0.06202183
0000a0 cb 86 66 bd 0d 48 af bb 2c a6 0f bb b9 e1 f4 bc
       -0.056280892 -0.0053491653 -0.0021919115 -0.02989279
0000b0 b1 da 4e bb de 0a 09 bd e6 6b 18 bd c9 4a 32 bd
       -0.0031563456 -0.03345763 -0.037212275 -0.043528352
0000c0 a6 d2 80 bd 69 52 e6 3c b9 22 cc 3c 9c e9 0d bd
       -0.06290178 0.028115468 0.0249189 -0.034646615
0000d0 3b 50 bb bc fb b2 a6 3c ce 93 55 3c 2c 73 ea ba
       -0.022865405 0.020349016 0.013035728 -0.0017887107
0000e0 80 f0 98 3c 64 c0 21 3d 65 9f 1c 3c e4 92 9a 3b
       0.018669367 0.03949012 0.009559487 0.0047172178
0000f0 0e 38 16 bc b4 41 2a 3c 69 54 80 bc a5 fb 79 3c
       -0.009168638 0.010391641 -0.01566525 0.015257751
000100 1e 8e 87 bd 16 74 ae b9 0b 45 38 bd 80 57 35 3d
       -0.066189036 -0.00033274357 -0.04498772 0.0442729
000110 24 d2 a1 3b 0b 33 e9 bb 3b 0f 92 3b e0 bf 0b 3c
       0.004938381 -0.0071166805 0.004457382 0.008529633
000120 40 aa bd bc ce 2b 92 bd 31 dd 92 3c 98 bc 41 bb
       -0.02315247 -0.07137261 0.017927738 -0.0029561874
000130 fb 6e 31 bd 6e 71 75 3c d6 49 26 3d f7 80 5d bc
       -0.04331873 0.014980657 0.04059776 -0.013519517
000140 bb 82 c0 bc 21 38 b7 bc 95 bd 07 bd ce df 94 3b
       -0.023499837 -0.022365632 -0.033139784 0.004543281
000150 cc 6f e7 b9 0d f8 2b bd 4b 89 b0 bc 2b 38 b2 3c
       -0.0004414305 -0.041984607 -0.021549841 0.021755299
000160 52 f8 26 3c b2 9d 1e bd bb ef 75 3b b9 d2 3b bb
       0.01019104 -0.03872461 0.0037526924 -0.0028659536
000170 35 d8 53 3a 0f a5 9b 3b ed a0 86 3c 19 e0 98 bb
       0.00080812286 0.004749901 0.016434157 -0.0046653864
000180 95 c4 d9 3c 46 ba 14 3c e9 fe 40 bc 33 78 15 bd
       0.026582995 0.009077614 -0.011779525 -0.036491584
000190 89 48 f6 bc 0b 20 16 3d 16 4a 18 bd 3b a9 90 bc
       -0.030063884 0.036651652 -0.03718003 -0.01765882
0001a0 1c c2 f4 b9 b3 13 eb ba a6 e4 15 3c b1 8c ac 3c
       -0.0004668393 -0.0017934948 0.009148752 0.02106318
0001b0 bc 11 cd 3c ba ea ed bc 50 5c ea bc 04 57 8b bd
       0.02503287 -0.02904259 -0.028608471 -0.06803706
0001c0 77 99 f8 bb 2d 22 9f 3c 32 38 63 3d 98 02 f8 bc
       -0.007586654 0.019425476 0.055473514 -0.030274674
0001d0 37 6a 46 bd 4b 82 8c bc 2d e2 b3 bc 85 7b e3 bc
       -0.048441138 -0.017151972 -0.021958435 -0.02776886
0001e0 64 f8 57 bc 67 a7 7d 3d 87 02 56 ba db 60 78 3c
       -0.0131817795 0.061927225 -0.0008163829 0.015159811
0001f0 55 64 63 bc 0c 55 18 3d 91 7d a1 bb 4a f7 b8 3c
       -0.0138789015 0.037190482 -0.0049282988 0.022578854
000200 b9 c1 8f 3c fe 43 14 3c be 2c 0f bd cf 03 d4 3c
       0.017548429 0.009049414 -0.03495478 0.025880722
000210 5c 2d a8 bb 7f f6 a1 3c 47 a6 58 bc 2d 58 74 3c
       -0.0051323604 0.019770859 -0.013223237 0.014913601
000220 3d e7 83 bd 15 6b 27 bc 4a a7 20 bb da 40 d3 bc
       -0.064405896 -0.010218401 -0.0024513775 -0.02578776
000230 8c 23 bf bc a8 62 14 bd 26 11 de bc d5 d5 3c bd
       -0.02333238 -0.0362269 -0.027107786 -0.046102364
000240 58 27 86 3c 36 59 0f bd 03 3b 13 bc bb 1c db 3c
       0.016376182 -0.034997188 -0.008986237 0.026747098
000250 ee 83 8f 3d 6e cf ca 3c c9 78 d7 bb 42 5c 9f bc
       0.070075855 0.024757113 -0.006575678 -0.019453172
000260 7d 21 c3 3c e5 89 14 3d 96 7f 87 bc 5d 9d 1e bb
       0.02381968 0.03626432 -0.01654033 -0.0024202683
000270 8d c5 26 3d 23 05 18 bd 14 38 8b bd cc 8b 1a bc
       0.040715743 -0.037114274 -0.067978054 -0.009432744
000280 1a 69 0d bd 45 0f b5 bc b9 e6 94 bc 1b 0f b7 3b
       -0.03452406 -0.022102008 -0.018176423 0.0055865175
000290 2a 55 2c 3c 19 15 b5 bc 1e c4 8e bc 39 94 86 3c
       0.010518352 -0.022104787 -0.0174275 0.0164281
0002a0 fe 0c d6 bb 54 bf 17 3d 01 f8 19 bc e5 28 3c 3b
       -0.0065323105 0.0370477 -0.009397508 0.0028710898
0002b0 15 ae 94 3c 08 cd 84 bb f8 09 b6 3c 64 b5 c9 3c
       0.018149415 -0.004052762 0.02222155 0.024622627
0002c0 08 6c 61 bb 5f 84 ba 39 a1 b4 7c bc a8 8e fc 3b
       -0.0034396667 0.0003557531 -0.015423925 0.0077074356
0002d0 f4 44 ef bc a5 22 26 bd 41 54 20 3d ca e4 73 3c
       -0.029207684 -0.040560383 0.03914285 0.0148860905
0002e0 49 60 12 3c 86 15 97 3c 0a 4d 50 bc 31 a3 cb 3c
       0.008934089 0.01844288 -0.01271368 0.02485809
0002f0 d2 2e 56 3d 60 f2 c8 3c b6 a2 f2 bc c7 be bb bc
       0.052290745 0.024529636 -0.029618602 -0.022918118
000300 fc 23 c7 bc 0f 0c b2 bb 58 1d 35 3d c7 01 33 bc
       -0.02430915 -0.0054335664 0.044217438 -0.010925717
000310 d9 e7 9f 3c 3c 9a 8b 3c 84 4b 1a 3d cc a2 5b 3c
       0.019519733 0.017041318 0.037669674 0.013405513
000320 9d 46 14 bd f5 2a a6 bb 75 5b 14 3c e7 51 25 3c
       -0.036200155 -0.005071039 0.009055008 0.010090328
000330 f7 e2 ff 3c d8 86 d2 bc 29 57 75 bc 56 af 3c bc
       0.031236155 -0.025699064 -0.014974394 -0.011516413
000340 d5 71 e8 bc 74 b3 bd bb dc 9e 80 bc 59 9b 4e 3d
       -0.028374592 -0.0057892147 -0.01570075 0.05044112
000350 5b 95 88 bc d4 b0 ed bc 7b 86 6f bc 65 99 ac bc
       -0.01667278 -0.029014982 -0.014619465 -0.021069238
000360 65 80 d0 3b 43 86 9b bb 8f e7 51 3c 33 95 77 39
       0.006362962 -0.00474623 0.0128115555 0.00023611337
000370 4f e7 88 3d 6d 2d 22 3d 62 b3 93 3c 17 58 0b bc
       0.066847436 0.039594103 0.018029872 -0.008504889
000380 e3 66 5f bb 65 d7 a3 bc 14 4d 7d bd 5b 0f 09 bc
       -0.0034088425 -0.020000169 -0.061841086 -0.008365477
000390 5c bb 8c bc 3a 13 08 ba b7 32 17 bc 5b 39 b8 3c
       -0.017179184 -0.0005190853 -0.0092284 0.022488287
0003a0 a9 00 61 3a c3 ec a4 bb 3f db 2b 3c db ac 21 bd
       0.0008583167 -0.005033107 0.010489284 -0.03947149
0003b0 d0 85 05 bd b7 1d b7 bb e4 65 4e bc c5 c6 b3 3c
       -0.032598317 -0.005588259 -0.012597535 0.021945367
0003c0 23 65 4d bc 23 85 cb 3c 7e 20 65 3c 88 59 1e ba
       -0.01253632 0.024843758 0.0139847975 -0.0006040563
0003d0 77 81 b4 bb 5e c3 90 bc e5 01 42 3c 40 c5 19 3c
       -0.0055085975 -0.017671283 0.011841272 0.009385407
0003e0 35 60 3e 3d d3 cf 5b bd 67 7d 04 3c 3b 24 2c bd
       0.04647847 -0.053664993 0.008086539 -0.04202674
0003f0 55 a3 d0 3b e6 ba f8 3c f9 58 63 3d 57 60 1c bc
       0.006367127 0.030362558 0.055504773 -0.009544454

action_model._discrete_distribution.branches.1.bias f4 [3]
000000 47 46 14 bc 3e fd 13 bd 8f 99 37 3d
       -0.009049959 -0.036130182 0.04482418

action_model._discrete_distribution.branches.2.weight f4 [720, 128]
000000 2a 64 01 3d 8b 89 f9 3c 23 a2 fe bc 69 f3 67 bc
       0.031589665 0.030461093 -0.031083172 -0.014157155
000010 0c 4b aa 3c e0 d9 58 3c b8 ee 91 bd e1 d8 4f 3c
       0.020787738 0.013235539 -0.0712561 0.012685985
000020 90 22 a4 bc d3 df 21 3a af d1 a9 3c 81 26 e9 3c
       -0.020036012 0.0006175015 0.020729868 0.028460743
000030 d4 29 67 bc 7f a3 3f bc 2d 66 9c bc ab f0 75 3a
       -0.014109094 -0.011696695 -0.01909169 0.00093818706
000040 28 cd 35 3c ee a8 60 3c 5d 64 a7 bc c7 4e 37 bc
       0.011096276 0.013712151 -0.0204336 -0.011188216
000050 39 d9 95 3c 03 3d bf bb ed 52 32 bc e8 3a 8a 3c
       0.018292056 -0.0058361306 -0.010884029 0.016873792
000060 bd df 8a bc 27 82 b7 3a e4 44 12 bd 6f d1 fd 3c
       -0.01695239 0.001400058 -0.03571023 0.030983655
000070 17 c2 3b 3c 76 cf ce bc bf a2 dc bc 34 49 96 bc
       0.011459849 -0.02524541 -0.026933072 -0.018345453
000080 44 29 0e bd 95 44 e2 bb 29 d1 ad 3c 8e 63 e8 bb
       -0.034707323 -0.0069051483 0.0212179 -0.007091946
000090 93 38 66 3c f9 4a 2b bc fe fd 4c 3d c9 46 98 3b
       0.014051574 -0.010454887 0.050046913 0.00464711
0000a0 6e 68 ae bc f1 50 11 bc 29 99 db 3b 0f 18 f2 bb
       -0.02129003 -0.008869396 0.0067016077 -0.007388122
0000b0 26 b5 03 bc bc 3a 4f 3c 46 40 a1 bb 34 bc 37 bc
       -0.008038795 0.012648281 -0.004920992 -0.011214305
0000c0 a0 2a 05 3c 52 2d d5 3b 8d 69 e5 bc 49 7a 14 3b
       0.008127838 0.0065056467 -0.028004432 0.0022655895
0000d0 a7 32 18 bd 57 a7 57 3c 41 97 a9 bb 1a a9 16 bb
       -0.03715768 0.0131624555 -0.0051755016 -0.0022988976
0000e0 1c 25 cc bc c8 31 0e bc ea c4 b2 3b 21 c3 a0 bc
       -0.024920039 -0.008678861 0.005455603 -0.019624295
0000f0 eb 6c 0b 3d 57 b6 04 3d 64 74 4d 3b 72 99 75 3b
       0.03403942 0.032400455 0.0031349892 0.0037475494
000100 1d 59 ef 3b 29 6c 36 bd 62 f1 8b bb e7 db 08 bc
       0.0073043243 -0.044536743 -0.0042707184 -0.00835321
000110 dd 65 4c bc b9 46 9d 3b 19 dc 19 3c 3a 43 db bc
       -0.012475458 0.0047996906 0.009390854 -0.026765455
000120 11 05 6f bc f0 44 8e 3a 05 1b 2d bd 49 9c c9 3b
       -0.01458861 0.0010854285 -0.042262096 0.006152664
000130 9b 2c 33 bd dd 12 88 bc 64 0b 87 bc d2 5b 53 bc
       -0.04374371 -0.016610557 -0.016484924 -0.01290031
000140 46 90 51 3b 50 ab 98 3b 38 29 37 bc cf 21 02 bb
       0.0031976863 0.004659094 -0.011179261 -0.0019856577
000150 d6 5a 08 3c d0 73 ea 3a 28 8e d2 bc 75 82 fe 3c
       0.008322438 0.0017887298 -0.025702551 0.031068066
000160 32 10 f1 bc 17 06 89 bc f9 ce bc 3c 26 3f c5 3b
       -0.029426668 -0.016726537 0.023047911 0.006019491
000170 f9 a3 05 3c c8 dc 3d bb b2 e6 82 bc d7 d6 04 bb
       0.00815677 -0.0028970707 -0.015979145 -0.0020269656
000180 8e 10 8d bb 6d fc 00 3d 61 9c 7d bb e5 c9 3e bb
       -0.004304952 0.031490732 -0.0038697945 -0.0029112038
000190 c9 c2 db 3c 55 9c fa 3c 00 01 76 3b d1 d0 9a 3c
       0.02682628 0.030592123 0.0037537217 0.0188984
0001a0 c0 23 60 bc 89 85 bc 3b f6 c0 24 3b 86 a6 f5 3b
       -0.013680398 0.0057532233 0.0025139428 0.007496658
0001b0 0a b2 c1 3b d6 78 25 3d 2b 6a a4 bc 42 fe c3 3c
       0.0059111165 0.04039844 -0.020070156 0.02392495
0001c0 f6 2e 51 bd 5b ee 08 3b b7 d7 2e bc e3 ce 4a 3d
       -0.051070176 0.0020894024 -0.010671548 0.04951371
0001d0 05 cf 4d 3b e1 ab 2a bc e9 9a 25 bc e4 5d 42 3c
       0.003140391 -0.010416956 -0.010107734 0.011863206
0001e0 4d 0b 2e bd e4 0e 02 bd 28 ae 9b bc 57 25 b8 bc
       -0.042491246 -0.031752482 -0.019003943 -0.022478743
0001f0 90 0c 65 bd 6f ac c6 3c db 7b 93 3d 01 54 ce bb
       -0.055920184 0.024252145 0.07201358 -0.006296635
000200 c5 c1 0f 3b 8e 5e 31 3d 42 36 4e bc 45 60 d4 bc
       0.0021935564 0.043303065 -0.012586178 -0.025924811
000210 7b f4 11 3a 3d 90 f9 3c b6 ed 96 bc 9a 85 e0 bc
       0.00055677415 0.030464286 -0.018423896 -0.027407456
000220 c7 0c 8d 3c 8b 95 38 3c 65 b0 e0 bb e2 f5 15 3d
       0.017218007 0.011266123 -0.0068569654 0.036611445
000230 fb 64 5d bc ff cb eb bc f2 45 80 3b 69 77 4f 3d
       -0.013512845 -0.028783796 0.003914588 0.050650988
000240 1c 7e ca 3c 1a ca ab 3c e2 9c f7 bc e4 3f 69 bc
       0.024718337 0.020970393 -0.030226175 -0.014236424
000250 2c a0 0b 3a 01 bd 0c 3c a4 51 9b bc b4 1d df bc
       0.00053262967 0.008589984 -0.018959828 -0.027235843
000260 69 85 52 3b 37 9d 2a bd 90 06 29 3c 7d 93 d4 bc
       0.0032122976 -0.041653838 0.010316506 -0.025949234
000270 e5 52 09 3d 14 64 51 3c 3e a9 60 3c 13 62 3d bc
       0.03352632 0.012780208 0.0137122255 -0.011559027
000280 52 df 68 3c 1c 8b ee bb 13 bb f5 3b 88 ce b5 3b
       0.0142134 -0.0072797667 0.0074991076 0.005548302
000290 7e bb 32 3c 61 4e 2d bd 0a 4d 89 bc a0 64 45 bd
       0.010908959 -0.042311076 -0.016760368 -0.048191667
0002a0 99 5c af 3c 15 9e 82 bc a8 cf 16 bd 98 41 16 3d
       0.021406459 -0.01594452 -0.03681913 0.03668365
0002b0 e2 99 da bc df 5b 2a 3d 6e 02 0f 3d 12 89 4e bd
       -0.026684705 0.04159152 0.034914427 -0.05042369
0002c0 d3 b1 39 3c 97 64 78 3c d1 42 71 bc e2 26 33 3c
       0.0113339005 0.015160701 -0.014725403 0.010934563
0002d0 2e 11 ee 3b 88 2f 2b 3d a5 85 02 3b 06 85 cc bc
       0.0072652316 0.041793376 0.0019916084 -0.024965774
0002e0 f5 77 7a ba 81 d4 9c bc 1e 4e 6a bc 83 c6 f9 bb
       -0.0009554618 -0.019144299 -0.014300851 -0.0076225414
0002f0 0c 0e 30 bc 24 8a 93 3c 12 ec bd 3c 77 f2 4e 3c
       -0.010745537 0.018010207 0.023183856 0.01263105
000300 d5 71 11 3c b5 3b 43 bb 35 7e 09 bc bc 6d e2 bc
       0.008877237 -0.0029790227 -0.0083919065 -0.027640216
000310 49 22 70 3c 86 0f 4b 3a ea 7b 26 3b a5 de ac 3c
       0.014656612 0.00077461486 0.0025403448 0.021102259
000320 5d 06 06 3c 63 a1 c3 bc be c7 32 3c 1a fc 8e bc
       0.008180228 -0.023880666 0.01091188 -0.017454196
000330 87 bd ca ba c9 99 24 3b bf ed b3 3c 94 2d 93 bd
       -0.001546786 0.0025116077 0.021963952 -0.07186428
000340 b3 61 a4 3c 49 29 45 3d da 80 1c 3c 2d 5a 5f bc
       0.020066118 0.048135076 0.009552205 -0.013632339
000350 a1 0b b6 bc 24 44 76 bd a2 52 fc bc fd fd ad 3c
       -0.022222342 -0.060123578 -0.030801121 0.021239275
000360 2c 47 6f 3c bb 37 3f 3c 37 77 f9 3c 0d e3 04 3d
       0.014604371 0.011671002 0.030452354 0.032443095
000370 1f 39 17 3c 96 24 07 bd 34 f0 ef 39 2e 92 45 3c
       0.009229927 -0.032993875 0.00045764598 0.012058778
000380 a3 d6 d0 bc 4f 46 d8 3c 2f 7c 9a bc e1 79 97 3b
       -0.025492972 0.026400713 -0.018858043 0.0046226834
000390 76 e6 31 3c 93 0b 49 ba fa 6f 4d 3c 75 c6 63 3c
       0.010858169 -0.0007669266 0.012538904 0.013902296
0003a0 86 50 c8 bc e6 85 e5 36 ae 9e bf bc 4b 1d c8 3c
       -0.024452459 6.8403197e-06 -0.023391094 0.02442803
0003b0 57 e0 d1 bc 10 f8 ae 3c ca b8 d3 3a 5e f4 a8 39
       -0.025619669 0.02135852 0.0016153094 0.00032225525
0003c0 6b c9 cc 3b a8 6f e7 3c 28 71 3e bc 4f 9e 6b 3c
       0.006249597 0.028251484 -0.011623658 0.014381005
0003d0 51 b0 ea bc cb 55 36 bd 35 11 b5 3c 2e 27 0d 3d
       -0.028648527 -0.044515412 0.022102932 0.034461193
0003e0 05 88 8a bc 29 7a 10 bd 5b 53 4a bc 77 72 af 39
       -0.016910562 -0.03527275 -0.012348975 0.00033463884
0003f0 45 b9 06 bd da b8 57 3a 65 31 c6 bc a1 24 d6 bc
       -0.03289153 0.0008229144 -0.024193475 -0.026140513
