Assets/Models/Shoptimise.onnx (onnx, 86443 bytes, 9 tensors)

network_body.observation_encoder.processors.0.normalizer.running_mean f4 [25]
000000 5c 18 f1 c2 04 15 b0 3f 1e bd 88 c0 00 00 00 00
       -120.54758 1.3756413 -4.2730856 0.0
000010 a3 e3 54 3d 00 00 00 00 18 b6 de 3b b9 9c 27 3e
       0.051974904 0.0 0.0067966096 0.16368379
000020 b6 49 9f c1 ba 31 66 3e 4c b6 e2 bf 0e b4 ef 3e
       -19.910992 0.22479907 -1.7711883 0.46817058
000030 fb 8b 5e c2 3e 5a 21 3f a4 75 bc c0 a3 26 56 3f
       -55.6367 0.63028324 -5.8893604 0.83652705
000040 f7 db c0 c2 89 5a 03 3f 76 fd 6a c0 82 db 48 43
       -96.42962 0.5131002 -3.67172 200.85745
000050 2b 7f 04 43 9f 77 d1 42 23 ed 43 41 a4 0e eb 40
       132.49675 104.733635 12.245395 7.345537
000060 e6 44 c8 40
       6.2584105

network_body._body_endoder.seq_layers.0.weight f4 [128, 25]
000000 ac 2f 0f 3e b1 0a 10 3d e0 77 66 bc 7b 86 f2 bd
       0.13983029 0.035166446 -0.014066666 -0.11842056
000010 62 2e 5d be 03 73 bd 3e 64 28 97 3d fb 44 52 3d
       -0.21599725 0.3700181 0.07380751 0.051335316
000020 fe 07 69 be d3 8e ef be c4 dc 24 3e 70 8a 20 bf
       -0.22756955 -0.46788654 0.1609984 -0.6271124
000030 6f ba 5c 3e 5c 8b 3b be a9 1f 80 3d 88 bf ef bc
       0.21555494 -0.1831488 0.06256039 -0.029266134
000040 55 37 5f bd 90 2a 15 bd 14 d2 58 be 6c 6e 8d 3c
       -0.054496128 -0.036417544 -0.21173888 0.017264567
000050 68 88 b6 3d 65 7a e7 be 80 45 08 3e c8 c2 a3 be
       0.08912736 -0.45210567 0.13307762 -0.31984544
000060 04 c4 a9 bd 15 f0 a1 3e f7 3f 73 3d 59 a1 3e 3e
       -0.0828934 0.3162848 0.059387174 0.18616237
000070 47 cb 51 be 29 ef 19 3e 1b 4e 18 3c 96 df 46 3e
       -0.204877 0.15032639 0.009295966 0.19421229
000080 34 12 25 3e 81 a0 8a be 3a 3e 55 3e 30 ce 29 3d
       0.16120225 -0.2707558 0.20824519 0.0414564
000090 78 8a 42 3e f2 10 98 bd c8 18 27 3d b6 0e 43 be
       0.18998134 -0.07425107 0.040795118 -0.1904858
0000a0 7d 22 37 be 66 24 9e 3e 30 7f 63 3e d0 e8 26 be
       -0.1788425 0.30887145 0.22216487 -0.16299748
0000b0 af d5 c7 bc a3 cb 21 3d e8 8e 05 bd d4 2e d3 3e
       -0.024393884 0.039500844 -0.03260699 0.41246665
0000c0 82 0f 61 3e 03 4f 9b 3c 71 d8 89 3e a7 d7 db bd
       0.21978572 0.018958574 0.26922944 -0.10734492
0000d0 7c 77 c0 be 8b cf 75 bd 58 95 fd 3d f1 95 19 3e
       -0.3759116 -0.06001238 0.12382001 0.14998604
0000e0 59 00 3d 3e 90 98 16 be 05 52 84 bc 46 ea 87 bd
       0.18457164 -0.14706635 -0.016152391 -0.06636481
0000f0 0a 8a a9 3c 57 49 e4 bd 3b 39 33 be a1 f5 04 3e
       0.020695705 -0.11146801 -0.175023 0.12984325
000100 5f c4 81 3e e6 c3 8f bd 69 58 b3 bd 83 37 2d 3d
       0.25345132 -0.070197865 -0.08757097 0.04228927
000110 65 56 a9 bc 3e b9 09 3d 49 af b3 3e 1d d7 e5 3d
       -0.020671079 0.033623926 0.3509467 0.1122267
000120 96 5d 4c 3e 0e 8a 40 3e 65 b9 f4 3d 95 47 0e bf
       0.19957575 0.18802664 0.11949424 -0.55577976
000130 48 d9 21 3e bf 71 82 3e f3 db 89 3e 27 c1 27 3d
       0.15805542 0.25477406 0.2692562 0.04095569
000140 8d c4 e3 3d de 0f 27 3e 99 8c 85 be b8 4b bd be
       0.111214735 0.16314647 -0.2608383 -0.3697183
000150 c6 55 28 bd 2d b5 84 bc ef 49 9d be 75 13 38 3e
       -0.041097425 -0.016199673 -0.3072047 0.17976172
000160 11 66 8a be a5 e6 55 3d 38 f9 c6 3e a3 ec 78 be
       -0.27030995 0.052221913 0.38862014 -0.2430902
000170 c1 89 6e bd 01 30 af be 63 61 88 bb ac a4 c5 bd
       -0.05823684 -0.34216312 -0.004162 -0.09650549
000180 d0 be e6 bd b8 55 8f bd 65 f5 03 bf 4d bf 59 bc
       -0.11266863 -0.069987714 -0.5154632 -0.013290239
000190 7b 71 37 be 36 36 24 3d dc fa 71 3d 5b ad ed bd
       -0.17914383 0.040090762 0.05907713 -0.116053306
0001a0 bc 59 38 3e 20 c1 9f be f3 51 10 3e e8 c1 e5 bd
       0.18002981 -0.3120203 0.14093761 -0.11218625
0001b0 5b 77 5e 3c cd 7d 16 3c 03 48 35 be 2d 75 8d 3d
       0.013578261 0.009185267 -0.17703252 0.06907115
0001c0 76 ad 93 3e 8b d8 84 bd d2 10 67 3e f5 ac 72 3e
       0.28843278 -0.06486615 0.2256501 0.2369879
0001d0 53 8f 78 be 1d 46 5f bd 8a 98 ec 3d 95 c9 8a be
       -0.24273424 -0.054510225 0.11552532 -0.2710692
0001e0 41 d1 a2 be c0 ff 82 3d 01 0b 3e be ee d7 26 bc
       -0.31800273 0.06396437 -0.18558885 -0.010183318
0001f0 4f 57 a8 3d fe 04 2a bc fd dc ad be d3 31 41 bd
       0.08219778 -0.010377167 -0.33957663 -0.047166657
000200 33 b3 4e bd 7b 45 9b 3e 8d 28 db bb 1a 95 4c be
       -0.050463866 0.30326447 -0.0066881836 -0.19978753
000210 df 7e 40 be ef 32 69 3e 37 84 33 3c f9 c5 c8 3e
       -0.18798397 0.22773336 0.010956815 0.3921354
000220 b0 58 5a bd aa fb 1d be 46 6b c1 be 41 27 c5 bd
       -0.053307235 -0.15428033 -0.37777156 -0.09626628
000230 20 07 61 3e 09 78 1a 3e 66 fb 8a be 8d 4d a2 3e
       0.21975374 0.15084852 -0.27144927 0.31699792
000240 e6 15 14 be 7c 7a 5c bd 5a 6e 0c 3f 05 b3 2f bf
       -0.14461479 -0.053827748 0.54855883 -0.6863254
000250 4a 57 b4 3d 55 8d 06 3e 85 2b 59 3e 54 d5 0f bd
       0.088057116 0.13139851 0.21208008 -0.035115555
000260 94 86 e7 bd b2 86 1f be 17 43 b7 be 83 74 34 3e
       -0.113049656 -0.15578726 -0.35793373 0.1762257
000270 7a d5 21 bc 40 16 53 bd 71 61 0d 3d f6 c5 0e 3e
       -0.009877557 -0.05153489 0.034516755 0.13942704
000280 20 4a 94 3d 15 61 6b be a2 31 75 3e 0b 59 94 bd
       0.07240701 -0.22986253 0.23944715 -0.07243546
000290 03 dd eb bb 82 ed 49 3e f6 b5 b0 bd 2a 64 6b be
       -0.0071979775 0.19719508 -0.08628456 -0.22987428
0002a0 f4 b3 50 3e 51 87 ab 3d 2a 02 eb 3d 8a 21 a4 3b
       0.20381147 0.08375419 0.11475022 0.005008881
0002b0 42 fc c5 3d 21 34 bf bd f8 76 0e be c3 55 d9 be
       0.09667255 -0.09336115 -0.1391257 -0.42448243
0002c0 d4 ec a6 3d f4 96 81 3c 15 58 e4 3d 93 38 b5 3e
       0.0815064 0.01581905 0.11149613 0.35394725
0002d0 9f 80 bb 3b 82 9f a9 3e e6 f7 2d bd 75 19 cc 3d
       0.00572212 0.33129507 -0.042472742 0.09965793
0002e0 42 7d 2c bd 11 62 7a bd 0d 3a d2 3d 04 e7 1c 3e
       -0.042111643 -0.06112868 0.102649786 0.153225
0002f0 30 a6 0e 3e ed 06 6e 3d ca 4c 97 3e 3e 61 bf be
       0.13930583 0.058112074 0.29550773 -0.37378877
000300 0c 8d 92 3e 72 dd 7d bb fe d2 b4 bd 57 23 7f 3e
       0.28623235 -0.0038736728 -0.08829306 0.24915825
000310 f7 f5 a8 3d c9 5f c5 3a 6e 1b e2 bd df e9 03 3d
       0.08250039 0.0015058453 -0.11040388 0.03220546
000320 29 bf 01 bd 48 66 90 3e 44 9d 1a bf 77 97 34 3e
       -0.031676445 0.28203034 -0.6039622 0.17635904
000330 3c de 65 be 7b 0a 90 3d 8e 11 c7 3d f3 41 de bd
       -0.22448057 0.07033249 0.09720145 -0.108524226
000340 53 7c a1 be 7d dc 8e be 38 cf 96 3e 5d 13 a4 be
       -0.31540164 -0.27902594 0.2945497 -0.32046023
000350 17 53 73 be 27 ac bf 3d 13 be 36 be 1c 13 cd bd
       -0.23762165 0.09359007 -0.17845945 -0.100134104
000360 cf bd 1d 3e 25 e8 5d be 0a 1a 4c bd 3d a5 32 3d
       0.15404437 -0.21670587 -0.04982952 0.043614615
000370 57 78 b2 3a ed c6 f6 bd b2 35 66 bc 13 2a 9c bb
       0.0013616186 -0.12049661 -0.014050888 -0.004765758
000380 00 a3 03 be 01 27 67 3d 39 5d 5b 3d 42 bf a9 3c
       -0.12855148 0.05643368 0.0535557 0.020721082
000390 ab 8b ff 3d f0 e3 14 be 71 ed 07 be 81 97 ae 3e
       0.124778114 -0.14540076 -0.1327417 0.34099963
0003a0 7a f6 74 be 78 8f a1 bd f9 a8 7f be 43 a1 d2 bd
       -0.23922148 -0.078886926 -0.24966802 -0.102846645
0003b0 53 e4 96 be 25 84 2f 3c af 3f 0c 3b e9 85 91 3e
       -0.29471073 0.010712658 0.0021400263 0.28422478
0003c0 e8 d1 53 be 5d b5 9f bd b1 fd 11 3d 74 39 8b be
       -0.20685542 -0.07798264 0.03564233 -0.2719227
0003d0 ce d8 0b bf 27 b1 31 3e 60 a6 dd 3d a0 61 eb bd
       -0.5462769 0.17352735 0.10822749 -0.1149323
0003e0 d3 4a 16 be 9c 50 63 3e a7 67 25 3c 94 7b e6 3d
       -0.1467698 0.22198719 0.010095513 0.112540394
0003f0 e1 9a 3e 3e 28 09 5e 3e cb 11 e8 bd 01 da 02 bf
       0.18613769 0.2168318 -0.11331519 -0.511139

network_body._body_endoder.seq_layers.0.bias f4 [128]
000000 bd fe 50 3d 28 a4 21 3d 3e e2 35 3c 1c 27 09 3d
       0.051024187 0.039463192 0.011101304 0.033484563
000010 c8 b6 72 3b c8 97 bf 3c 3f b7 41 3c 28 39 b8 3c
       0.0037035216 0.023387805 0.011823474 0.022488192
000020 ac b3 f7 3b 8d 9d 3d 3a 65 aa af 3c 37 31 1e 3d
       0.0075592604 0.0007233255 0.021443555 0.038621154
000030 77 0b cf 3c 5e 00 56 3c 9a b8 54 3b 30 ec 09 3d
       0.025274022 0.013061611 0.0032458664 0.03367251
000040 90 b3 a7 bc 84 84 e7 bb d9 27 ee 3b 41 89 b6 bc
       -0.020471364 -0.0070653576 0.007267934 -0.022282245
000050 16 4d 12 3d d1 f7 47 3d 28 78 eb 3c b4 6d 18 3d
       0.035718046 0.04882032 0.028743818 0.037213996
000060 38 9f eb 3c e2 7d 41 bd 55 8b 71 3c 91 11 07 3c
       0.028762445 -0.04723919 0.014742692 0.008243934
000070 6d c3 8b bb 24 b0 5a bc 6d c1 3a bd 10 ba 61 bb
       -0.00426524 -0.013347659 -0.04559462 -0.0034443177
000080 5b ab a1 3d a1 5a 49 3c 3d d0 4e 3c b2 f4 48 3c
       0.078940116 0.012289674 0.01262289 0.012265371
000090 67 cc de 3c f6 bc 30 bb 47 c3 67 bc 75 29 86 3c
       0.027197076 -0.0026968098 -0.014145679 0.01637719
0000a0 cc a8 56 3d 8b 51 4f 3b 73 79 30 bd af 5c 56 3d
       0.05240707 0.0031634297 -0.043084573 0.052334484
0000b0 22 ed af bc bb 92 06 3c ac 6b f0 3c 6b 41 4b 3c
       -0.021475378 0.008213694 0.029348217 0.012405734
0000c0 df a6 38 bc 0f 4e f3 bc cf d4 c0 3c 24 46 2e 3d
       -0.011270254 -0.029700307 0.023538975 0.04254736
0000d0 d3 ce a1 3c 14 7e 06 3c f4 8e c2 3c 73 41 10 3d
       0.019751942 0.00820877 0.023749806 0.035218667
0000e0 61 16 51 bc 7c 5c 3f 3d a5 80 a4 3c a1 13 78 3d
       -0.012761683 0.04671906 0.020080874 0.060565595
0000f0 1b c8 39 3d c0 45 05 3c 69 42 a0 3c ba a5 ce bb
       0.04535685 0.0081343055 0.019562917 -0.0063063772
000100 1e 1a a4 3b 6c 64 87 bb 4f 27 85 3c 43 b7 0f 3d
       0.005007996 -0.0041318443 0.016254095 0.03508688
000110 e4 13 5e 3d e5 e1 ad 3c 1f d2 31 3d fd 4b 7d 3d
       0.054218188 0.021225879 0.043413278 0.061840046
000120 dd 27 af 3c 1f 63 5e bc c5 12 ac bc 15 59 1d 3d
       0.021381313 -0.013573437 -0.021005044 0.038415033
000130 ab be 8e bc bf ff d0 3c 50 b6 3e 3d c0 99 1e 3d
       -0.017424902 0.025512574 0.046560585 0.038720846
000140 6c f4 2c 3d be 47 95 bb aa e3 f9 3c 27 61 28 3d
       0.042225286 -0.0045556715 0.030504066 0.041108277
000150 2d 19 91 3c b0 2c ee 3c 75 9f 06 3d 41 c6 c7 3c
       0.0177122 0.029074043 0.032866914 0.024386527
000160 1e 6b 18 3d be 4e c5 3c 82 b4 ce bc e3 3b f5 3c
       0.03721153 0.024085399 -0.025232557 0.029935783
000170 a8 54 37 bd 1b 4a 8f bc 55 8f a5 3b 16 d3 d2 bb
       -0.04475847 -0.01749139 0.005052487 -0.006433855
000180 56 cd 9f bc 9e 7f ce 3a 75 95 1e 3d 9d ce 0f 3d
       -0.019507091 0.0015754586 0.038716752 0.03510915
000190 6f a6 26 3d 4e 41 30 3d 17 1a c2 3c 00 a2 74 3c
       0.040686067 0.04303103 0.023694081 0.014931202
0001a0 c2 7d c8 3b 83 82 9d 3c c2 7c 59 bb 20 44 a8 3c
       0.006118507 0.019227272 -0.0033185934 0.020540297
0001b0 f2 70 17 3d 92 b8 85 3b 00 a5 1f 3d 01 31 b7 3a
       0.036972947 0.0040808404 0.038975716 0.0013976396
0001c0 70 64 33 3d 3f 57 e6 3c 63 c1 70 3c 4a dc 52 3d
       0.043796957 0.028117774 0.0146945445 0.051479615
0001d0 2d dc 81 3c c9 2c cb 3c 51 2f 6c 3d 11 27 5e 3c
       0.015852058 0.024801629 0.057662312 0.013559119
0001e0 d0 96 56 3c a1 bf 77 3d 81 fb 18 3d f5 0c 70 3c
       0.01309748 0.060485486 0.037349228 0.014651527
0001f0 4e c1 04 3c 37 c0 be 3b ff 38 12 3c 6f df fe 3b
       0.008102728 0.0058212536 0.008924722 0.0077781

network_body._body_endoder.seq_layers.2.weight f4 [128, 128]
000000 54 83 09 3e dc 5b be bd 33 04 37 be 01 be 95 3d
       0.13429004 -0.092948645 -0.17872696 0.07311631
000010 f5 86 0b 3e 65 be 1c be d0 a8 f0 3d 45 3d c0 bc
       0.13625701 -0.15307005 0.117509484 -0.023466716
000020 50 ee d8 3c d5 f2 13 bc f1 37 88 bc fe cf 51 bd
       0.026480824 -0.009030064 -0.016628237 -0.051223747
000030 aa 7b 5b 3d c7 10 3b be 12 9b f3 bd 80 11 0a 3e
       0.053584732 -0.18268119 -0.11894812 0.13483238
000040 6a f1 46 bd 88 38 2e bd f0 99 87 3d 0d d2 96 bd
       -0.048570074 -0.04253438 0.06621158 -0.07364283
000050 9c dc 87 3d 04 54 55 3d 08 90 99 bd 23 2d 14 3e
       0.06633875 0.052082077 -0.07498175 0.14470343
000060 9b 16 ea bd 88 56 55 bd 48 ef 06 be 2b 8b c1 3c
       -0.11430093 -0.052084476 -0.13177216 0.02362593
000070 7e ef 34 bb e8 cb 62 3c 25 23 da 3c f8 ae cd bd
       -0.0027608569 0.01384256 0.026628086 -0.10043138
000080 29 62 4a bd b3 59 17 be e6 d3 09 3e 6c 3d 0f be
       -0.04941002 -0.14780311 0.13459739 -0.13988274
000090 2e f7 3b 3d 60 de 2f 3d 8c 2b 6d bd 60 37 33 be
       0.045890026 0.042936683 -0.057902858 -0.17501593
0000a0 75 99 b3 3c 9d 57 28 3d 84 a6 a9 3c 3d f8 00 be
       0.02192376 0.04109918 0.020709284 -0.12594695
0000b0 65 7c 26 3e 40 f1 09 3e 28 1d 86 bd 9a e2 9b 3d
       0.1625839 0.13470936 -0.0654853 0.0761158
0000c0 ab 04 17 3b 7a 90 09 3d c4 42 1b bb 14 99 81 bc
       0.0023043554 0.03358505 -0.0023690918 -0.015820064
0000d0 31 d2 3d bd ae 71 a2 3c 23 2b ff bd 15 b3 5d 3c
       -0.046343032 0.019829597 -0.124593996 0.013531466
0000e0 21 6f 4c bd 6e 6c 9f 3d a4 74 e3 3d d3 01 39 bd
       -0.04991067 0.07784353 0.11106232 -0.045167755
0000f0 58 3f 89 bd 89 46 b3 bd 43 ef 74 bd 88 21 96 3d
       -0.06701535 -0.08753688 -0.05979849 0.07330614
000100 9d 5d c4 3d 10 cd 81 3d 48 3e 19 bd a4 af c1 bc
       0.09588168 0.06337941 -0.03741291 -0.023643322
000110 54 26 4a bc bc 71 98 3c 46 a0 03 3d 64 31 9c 3c
       -0.01233824 0.01860892 0.03213527 0.01906652
000120 0e e2 c1 bb f6 45 05 3e 83 60 f9 3d be 62 72 bd
       -0.0059168404 0.13014969 0.12176611 -0.0591762
000130 61 b2 22 3d 93 0c b2 bd 75 70 a0 bd 69 14 80 bd
       0.039720897 -0.086938046 -0.078339495 -0.06253893
000140 ba 30 bc bd d7 47 dc bd 43 37 ff bc 87 98 7a 3d
       -0.09188981 -0.1075589 -0.03115428 0.061180618
000150 b5 84 19 bd 23 35 ed bc ce 3f 66 be 76 9b b2 3d
       -0.037480075 -0.028956002 -0.22485277 0.08721058
000160 4b 1a ae bd a4 e3 80 3c 02 04 91 bd 21 63 8c be
       -0.08501109 0.015733548 -0.070808426 -0.2741938
000170 6a 97 b3 bc 88 1d e8 bd 98 1b d9 ba 69 3c dd 3c
       -0.021922786 -0.11333758 -0.001656401 0.027006345
000180 a4 79 58 b9 9a 25 30 3e e9 1e ab bb b4 9a fb 3d
       -0.0002064468 0.17201844 -0.0052221906 0.12285367
000190 a8 4d 3c be 30 73 0d ba e4 62 a8 bd cf 8f 93 3d
       -0.18388999 -0.00053958874 -0.08221987 0.07205164
0001a0 bf 19 a9 3d 7e 14 5f bd 89 f8 05 be d2 8d 3c bd
       0.08256864 -0.054462902 -0.1308309 -0.046033688
0001b0 d6 b7 06 be ef d6 41 3e a2 fe aa bc 97 a9 bc 3d
       -0.13156065 0.18929647 -0.020873372 0.09212034
0001c0 85 15 24 bd 0e ad 8f bd 7d 52 80 bd d0 32 98 be
       -0.040059585 -0.070154294 -0.062657334 -0.29726267
0001d0 0a 92 07 be 51 76 b1 bc 75 44 0f 3e c2 b4 e0 3c
       -0.13239303 -0.021662863 0.13990958 0.027429942
0001e0 58 38 46 3c cc f1 fa 3c 51 84 39 3e c1 b7 4f 3e
       0.012098394 0.030632876 0.18116881 0.2028494
0001f0 74 d1 74 bd a9 9e c5 bc c6 5b a8 bd 42 91 e2 bd
       -0.059770063 -0.024123507 -0.082206294 -0.11062862
000200 a9 de 4d 3c 0c 8f 2e bc a6 57 8d 3d 60 aa 50 3d
       0.012565293 -0.010654222 0.06901483 0.050943732
000210 73 e9 f8 3d f0 4c 9c 3d 32 1d c6 3d 8a c1 0b 3d
       0.12153902 0.07631862 0.09673537 0.03412012
000220 d9 11 c5 bd 0a d8 6f 3d 72 1c 29 bd 62 e8 7c 3d
       -0.09622545 0.05855564 -0.041286893 0.061745055
000230 94 39 f8 bc 38 07 d5 3d ee 5c b2 3d 4c ba 18 3e
       -0.030300893 0.104017675 0.08709131 0.14914817
000240 df ec 8b bc 8e f7 a3 bd ec 47 9b 3d 9f 0d 03 bd
       -0.017080722 -0.08006202 0.075820774 -0.031995412
000250 bf 04 7d 3c d8 7a bb 3d 19 a1 37 bd 75 f6 95 bc
       0.015443026 0.0915429 -0.04483137 -0.018305996
000260 22 6d d5 bd e6 61 5e bd 9c f6 83 3d 9a 8f 1a 3d
       -0.10421206 -0.054292582 0.064435214 0.037734605
000270 52 1a 1e be d3 ce 02 bd 4d a6 f9 3b e6 ab d1 3d
       -0.15439728 -0.031935524 0.0076187016 0.10237865
000280 68 25 86 3d 31 92 32 3e 8e 22 ca bc 70 67 03 3d
       0.065501034 0.1743858 -0.02467468 0.032081068
000290 de 6a 0e 3e f2 84 f2 bb f8 70 8e 3c 15 55 48 bc
       0.13907954 -0.007401102 0.017387852 -0.012227316
0002a0 9f a8 17 be bf c3 1a 3e 15 2b ce 3c 90 ed b9 3c
       -0.14810418 0.15113734 0.025167027 0.022696286
0002b0 81 1e e3 3d f5 fb 42 3d 2b 9b 2c be 0f 04 9c bc
       0.110898025 0.047603566 -0.16856067 -0.019044904
0002c0 01 b6 84 3d ab 4d a2 3d cc 05 4a bd 34 58 9e 3d
       0.06480027 0.0792497 -0.049321935 0.07731667
0002d0 83 3e 9b bd 41 d5 34 3d 73 f7 e6 3d 9e c8 cf 3c
       -0.075802825 0.044148687 0.11277666 0.025364216
0002e0 15 6f 4d bc 83 cf 4c be a9 85 0f 3d f7 9f 3a 3d
       -0.012538691 -0.20001034 0.035039578 0.04556271
0002f0 f9 37 17 3d 1e 26 02 be 16 3e 1f 3e a7 92 a3 3d
       0.036918614 -0.12709853 0.15551028 0.07986956
000300 46 d4 f7 3d 5a 3e 9a bd db 5f bf bd cb b2 5d 3e
       0.12101035 -0.07531424 -0.09344455 0.21650235
000310 3f b0 43 3d 13 d4 c5 3d 74 32 00 3d 7b b0 9d bd
       0.047775503 0.096595906 0.031298116 -0.076996766
000320 7e 71 70 bc 21 b3 16 bd 6c 84 07 be 32 ec 8c 3d
       -0.014675496 -0.036791924 -0.13234109 0.06880988
000330 d7 40 5b 3d 2f 68 58 bb c6 de ad bd e4 f3 1e be
       0.053528633 -0.0033021083 -0.08489756 -0.15522724
000340 bc 96 3d 3d 03 18 1f be d2 04 4b 3d c4 95 9f bd
       0.04628633 -0.15536503 0.049565144 -0.077922374
000350 f9 a5 1a 3c ff 26 be 3d 71 a4 fa 3b 9c 79 5f 3d
       0.009438985 0.09284782 0.0076489975 0.054559335
000360 41 23 55 bd 92 91 e3 bb 00 ae 74 bd 0c 4f be bc
       -0.052035574 -0.0069448436 -0.05973625 -0.023231052
000370 b1 3f cd bb 2e 18 d2 bd 48 77 a2 3c 1b 04 04 be
       -0.006263696 -0.10258518 0.019832268 -0.12892191
000380 de 3e 5a bd 19 31 c7 3d 68 c6 b8 3d 50 bf b6 bd
       -0.05328261 0.097261615 0.09022218 -0.08923209
000390 ce 6e e5 bd 90 fe a3 3c fb f9 b0 3d 80 39 5a bc
       -0.11202775 0.020018846 0.0864143 -0.013319373
0003a0 1c ff 0a bc 96 29 69 3d c9 b1 ea 3d ec 12 ea 3d
       -0.008483674 0.056924425 0.11459691 0.1142939
0003b0 cb 7e 0a be 80 d7 e5 bd 1e b5 34 3d 59 a0 14 3e
       -0.1352493 -0.11222744 0.04411804 0.14514293
0003c0 86 8d ce bd d8 0d 06 3d 0f 1f 15 3e 31 f1 26 3d
       -0.10085587 0.032728046 0.14562629 0.04075736
0003d0 d9 0c c6 bd fe 44 79 3c 25 3b 03 bd 5a f1 ec bc
       -0.09670419 0.015214203 -0.032038826 -0.02892368
0003e0 86 ef 7d 3d 29 8e 92 bd ca e0 a9 3d 39 35 32 bd
       0.061996005 -0.07156021 0.08294828 -0.04350779
0003f0 e3 80 1d bd 0e 8e 8a bd 06 e9 1e 3e e2 e5 97 3d
       -0.038452994 -0.06765376 0.15518579 0.074168935

network_body._body_endoder.seq_layers.2.bias f4 [128]
000000 52 85 40 bb 05 95 4b 3c 53 ba 1d 3d c3 6a 5d 3d
       -0.002937634 0.012425666 0.03850777 0.054056894
000010 cc 8f b3 ba db 07 6f 3a 64 c5 ba 3a b3 e9 01 bd
       -0.0013699471 0.0009118297 0.0014249501 -0.031717014
000020 19 90 05 3d ff dd 07 3d b2 0c 9e 3c e2 ce 81 3c
       0.032608125 0.033170696 0.019293163 0.01584572
000030 66 2c 5e 3d 33 ea b7 3c 84 2f 0a 3d f5 57 23 3d
       0.05424156 0.022450542 0.03373672 0.039878804
000040 92 cb ed bc 97 7c aa 3c 91 12 e7 bb 1d e3 05 3d
       -0.029027734 0.020811362 -0.007051774 0.032687295
000050 c4 2f 20 bd 25 db 03 bd d2 2f 65 bd ed 86 0c 3c
       -0.039108053 -0.032191414 -0.055953808 0.008577091
000060 ae b2 01 3d d5 33 b4 bc f1 55 28 3d 28 6c 17 3d
       0.031664543 -0.021997372 0.041097585 0.03696838
000070 fa 09 2c 3d e0 0b 7b bb 03 1a 05 3d 39 14 da 3c
       0.042001702 -0.0038306639 0.03249551 0.026620971
000080 f1 9e 92 bc 34 58 1c 3d 90 ec 65 3c 51 97 fc 3b
       -0.017898055 0.038170055 0.014033452 0.007708468
000090 0a 01 0b bc a5 9c a7 ba ac 70 e0 3c c6 ae 82 3c
       -0.008484134 -0.0012787773 0.027397476 0.01595248
0000a0 6d d0 81 bd 87 28 b2 bc a1 96 49 3d 5f 1a 3c bd
       -0.06338582 -0.02174784 0.049215917 -0.045923587
0000b0 47 80 0c bd e7 16 32 3d 73 ed 2a 3d c2 55 22 3d
       -0.034302022 0.043478873 0.041730355 0.039632566
0000c0 9a 19 0b 3d b5 c6 5b 3d 09 78 bb 3c c9 a4 2c 3d
       0.033959962 0.0536563 0.022884386 0.04214934
0000d0 b7 98 00 3c e5 11 e3 bc ba fa 79 bc ce 19 80 3d
       0.00784891 -0.027718494 -0.015257532 0.06254922
0000e0 93 6a e2 bc 0d 07 c0 bc ba 56 93 bc 8c a3 82 bc
       -0.02763871 -0.023440862 -0.01798569 -0.015947126
0000f0 27 0d 77 3c f9 56 bc 3c 7c 1f 84 3c 3d d1 a2 3b
       0.015078819 0.02299069 0.016128294 0.004968791
000100 9e 49 d8 bc 50 bf eb 3c 3b a2 0a 3d 50 0d 05 3b
       -0.02640229 0.028777748 0.03384612 0.0020302124
000110 eb f9 40 bc d8 5c 58 3d 16 96 9a 3a 02 82 1d 3d
       -0.011778335 0.052822918 0.0011793997 0.038454063
000120 23 a1 26 3d 54 dd 1a bc 3d ac 83 bb af 20 03 bc
       0.040681016 -0.009452183 -0.004018335 -0.008003398
000130 0b c1 04 3d 61 c3 da 39 5e fc ea bc d4 8a 1f 3d
       0.032410663 0.0004172577 -0.028684791 0.038950756
000140 6b 2f a9 bc 6e d9 a8 ba 4a d3 9d ba a4 8b 38 3b
       -0.020652493 -0.0012882182 -0.0012041118 0.0028159404
000150 10 69 17 3c 64 cb 14 3d 11 fe 5c 3a 6e e2 91 3c
       0.009241357 0.03632678 0.0008430193 0.017808165
000160 0b 66 d3 3c 48 32 0b 3d b8 ca 10 3d 9f e1 01 3d
       0.025805494 0.0339835 0.035349578 0.03170931
000170 12 7b 37 bc e4 1d 2d 3d 1a e4 41 bd 25 8e 27 bd
       -0.011198776 0.042264834 -0.047336675 -0.040907044
000180 e5 e4 3e 3c 1a fa 3b 3d b7 16 22 3d 9f 89 18 bd
       0.011651252 0.045892812 0.039572444 -0.03724062
000190 1b 3b 4b 3d e1 84 59 3c bf ba 35 3c 70 ed 7b bc
       0.049616914 0.01327631 0.011091887 -0.015376434
0001a0 10 bd 6f bb c1 3c d6 3b a8 a5 04 bc b5 6a f9 3b
       -0.0036581196 0.006538004 -0.008096136 0.0076115974
0001b0 7b 60 d9 3c fa 9b 94 bc 31 34 3c bb 6c 20 a5 3c
       0.026535263 -0.018140782 -0.0028717632 0.020157062
0001c0 62 34 33 3c ee 0f 04 3d e3 f5 b3 bb 9a a7 76 3c
       0.010937782 0.032241754 -0.0054919585 0.015054608
0001d0 e3 49 00 3d 7d 99 29 bc 38 8b 4a 3c 8d 6e 69 bb
       0.031320464 -0.010351536 0.012362294 -0.0035618872
0001e0 a4 ae ee 3c c6 da 13 3d db 79 15 3d f1 e7 01 3d
       0.02913601 0.03609731 0.036493164 0.031715337
0001f0 1e 5e 4a 3b 48 c9 d9 3b d6 71 83 3c 37 aa f0 bc
       0.0030878852 0.006646309 0.016045492 -0.02937804

action_model._continuous_distribution.log_sigma f4 [1, 3]
000000 90 a4 1b be ef ce 01 be b2 30 e5 bd
       -0.15199494 -0.12676595 -0.111909285

action_model._continuous_distribution.mu.weight f4 [3, 128]
000000 7c d9 43 bd 88 c9 25 3c 3b 8b 69 3d 21 8a 63 3d
       -0.04781483 0.01011885 0.057017546 0.055551652
000010 e1 1d 02 bd ca d7 8b bb 79 e1 aa bc 9b 7d 8b bd
       -0.031766776 -0.0042676674 -0.020859467 -0.06811067
000020 a0 ce 0f 3d 8d e5 21 3c 5b 87 96 bb 54 84 79 bb
       0.035109162 0.009881389 -0.0045937723 -0.0038073258
000030 2b 23 42 3d 8d bd 12 ba c0 ce fe 3c d3 75 32 3d
       0.04739682 -0.0005597703 0.031104445 0.043569397
000040 50 54 d8 bc 50 22 19 3c f8 ec fd bb ee 56 e9 3c
       -0.02640739 0.00934656 -0.007749196 0.028483834
000050 49 f5 3c bd 10 c3 4f bd 4d c5 14 bd 40 a9 c6 bb
       -0.04613236 -0.050723135 -0.036320973 -0.0060626566
000060 f8 d8 47 3c a8 e6 77 bd 25 1c 5a 3d 87 9d 7b 3c
       0.0121977255 -0.060522705 0.053249497 0.015357382
000070 76 a4 7b 3d 2b 99 0c bb bc b9 46 3c 02 d6 fc 3c
       0.06143614 -0.00214536 0.012129243 0.030863766
000080 84 0c 20 bd 7a 52 be 3c 3c b8 92 3c c6 e4 9e 3a
       -0.039074436 0.023232687 0.017910115 0.0012122623
000090 2d 66 28 bc 45 47 4a ba 6f 11 df 3c d4 11 6e 3c
       -0.010278267 -0.00077163085 0.027229993 0.014530618
0000a0 ed 2d 26 bd e0 7c 5b bd 6b 25 90 3d 70 2a bf bc
       -0.040571142 -0.053585887 0.07038387 -0.023335665
0000b0 f9 1b 58 bd f5 0d 06 3d 73 86 58 3d 06 58 06 3d
       -0.05276105 0.032728154 0.052862596 0.03279879
0000c0 e9 e6 5f 3d 52 e5 97 3c 78 93 25 3c 85 eb 4e 3d
       0.054663572 0.018541966 0.01010596 0.050517578
0000d0 79 3c 41 bb c8 66 54 bd a9 c5 16 bd 95 82 1d 3d
       -0.0029485507 -0.051855832 -0.036809597 0.03845461
0000e0 46 6f 29 bd 36 b9 9b 3a 56 36 49 bd f6 25 d5 bc
       -0.041365884 0.0011880759 -0.049124084 -0.026019078
0000f0 7a fb be 3b 23 6b 81 3c 62 f8 0d bc c6 cf b5 bc
       0.005828318 0.015798157 -0.008665176 -0.0221938
000100 5f 5d 89 bc 64 de 05 3d d1 ff ab 3c 55 3b 47 3c
       -0.016768156 0.03268279 0.020996006 0.012160142
000110 0f 17 02 bd 73 34 3f 3d e1 ae cc 3b d8 90 12 3d
       -0.03176027 0.04668088 0.006246433 0.035782665
000120 2a c9 1b 3d 40 54 35 bd 85 25 1c bd 03 4d 3f bc
       0.038033642 -0.0442698 -0.03812172 -0.011676076
000130 ec 16 2c 3d b7 1a 6f bd d3 dd e4 bc d7 61 c9 3b
       0.042014048 -0.058375087 -0.027937805 0.0061456966
000140 6b c4 a1 bc 06 01 d0 bb 70 e8 42 bd ce 7d a8 ba
       -0.01974698 -0.0063477783 -0.04758495 -0.0012854876
000150 12 91 03 3c 8f e9 1b 3d 06 70 bc 3c fb 5f 38 3c
       0.008030193 0.038064536 0.023002636 0.011253352
000160 6d 79 91 3c 8a 1e 58 3d c6 61 f0 3c c7 95 cb 3c
       0.017758096 0.0527635 0.029343497 0.024851693
000170 90 bd 44 3b 56 88 a7 3c 22 7e 79 bd 79 7b 59 bd
       0.0030020215 0.020450752 -0.060911305 -0.05309627
000180 96 91 c2 bc 35 11 65 3d 0e 59 5c bb 30 a0 b5 bc
       -0.023751061 0.055924613 -0.0033622417 -0.02217111
000190 93 9d 62 3d 68 62 15 bd 34 0d 99 bc 22 0c b8 bc
       0.055326056 -0.0364708 -0.018683054 -0.022466723
0001a0 f0 39 55 3b 9b 8f 71 bc af 90 2c bd be 1e 5b 3c
       0.0032535754 -0.014743711 -0.04213017 0.013374029
0001b0 06 64 1f 3d a9 4e 49 bd 81 10 9f 3c a4 53 03 3c
       0.03891375 -0.04914728 0.01941705 0.008015547
0001c0 ab d9 e3 3b b2 5a f9 3c a7 03 33 bc 88 e1 3c 3c
       0.0069534383 0.030438755 -0.010926164 0.01152838
0001d0 0f e8 51 3d 27 0a b6 bc d9 09 8c 3c 0a 4b 4d bd
       0.0512467 -0.022221638 0.01709454 -0.05012039
0001e0 6b 3f 0b 3d 3c 02 01 3d 18 3e 16 3d e8 a2 d9 3c
       0.033996027 0.03149627 0.03668031 0.026566938
0001f0 cb 61 83 bc c5 9b ab 3c 5a 15 a1 3c 95 7e 2f bc
       -0.016037842 0.0209483 0.019663502 -0.010711332
000200 20 57 e3 bb 61 80 2e 3d cf 07 81 bd 9e 41 7a 3c
       -0.0069378763 0.0426029 -0.063003175 0.015274433
000210 85 04 5a bd b3 02 6e bd 2f 75 c6 bc 37 ca 38 bd
       -0.053226966 -0.058108043 -0.0242258 -0.045114722
000220 9b 0f fa 3c 01 31 74 bd 17 be 68 bd 8c 39 49 3d
       0.03052502 -0.059617046 -0.05682191 0.049127147
000230 17 95 12 3d fe f4 8d bd 7b ec 94 3c 34 90 b2 bc
       0.035786714 -0.06931494 0.018179169 -0.021797277
000240 f8 0c 47 3c 0c a7 07 bb 10 dd 15 bd 5b 74 94 bc
       0.012149088 -0.0020698933 -0.036587775 -0.018121889
000250 cf 64 9f 3c 39 34 99 3c 7a 16 94 3b 95 35 6a 3d
       0.019457249 0.01870166 0.004519281 0.057180006
000260 81 e3 76 bc 22 5a 44 3c fc d6 94 3c 74 3f bd bb
       -0.01506889 0.01198438 0.018168919 -0.0057753865
000270 29 c7 3f 3d c3 9c e0 3c ba 8c 57 bd 1e 4e 8b bc
       0.046820793 0.0274185 -0.05262444 -0.017005023
000280 5b b8 ca 3c 10 2a 70 bc 81 64 e9 bc 60 5a 47 3d
       0.02474611 -0.014658466 -0.028490307 0.048670173
000290 95 ac 2c bd f5 64 71 bc 7a 4f f2 bc db f9 66 3d
       -0.042156775 -0.014733543 -0.029578913 0.056390624
0002a0 d0 cf b7 bb 4f 46 cf ba 30 01 01 bc a6 b6 af bb
       -0.00560949 -0.00158138 -0.007873818 -0.0053623496
0002b0 1a 49 17 3c 29 d5 53 3c d3 cd ab 3a 71 27 a6 bc
       0.009233737 0.012929239 0.0013107605 -0.020282479
0002c0 68 0b 03 3d 6f b6 b3 3b 74 32 80 bd 17 e1 7d 3c
       0.0319933 0.0054843943 -0.06259623 0.01549556
0002d0 51 2f 86 ba 65 58 1d bd f6 a1 59 ba 24 dd 99 bc
       -0.001023749 -0.038414378 -0.0008302027 -0.018782206
0002e0 d7 c6 d4 3b 1e ff 6f 3c 46 28 15 bd f8 05 3c 3d
       0.00649343 0.014648227 -0.03641536 0.04590413
0002f0 66 c8 1e 3d ec 17 eb bc 75 4b 06 3d 7d 93 47 bd
       0.038765334 -0.02869793 0.032786805 -0.04872464
000300 16 16 e1 3c f0 4e b6 3c d6 21 90 bc f6 76 30 3d
       0.027476352 0.022254437 -0.01759426 0.0430822
000310 10 2e 20 bd 75 82 85 3c 27 89 4d 3d 04 8c 1e 3b
       -0.03910643 0.016297558 0.050179627 0.0024192343
000320 7d f0 3b 3d a5 7c 4b bd 38 72 a9 bb 2a e5 8d bb
       0.045883644 -0.049679417 -0.0051710866 -0.004330297
000330 17 ab 3c 3d 88 5b 99 3d e6 fa ea bc 90 ed 10 3c
       0.0460616 0.07488161 -0.02868409 0.008845702
000340 9b c9 f3 3c 5c b2 c6 3c fb 9f 40 bd ac 0a 9a 3c
       0.029759219 0.02425497 -0.04702757 0.018803917
000350 7d a0 28 bd 04 bc 85 3c ba 49 08 bb 53 c5 c5 3c
       -0.04116868 0.016325004 -0.0020795898 0.024141943
000360 82 06 06 3d b7 98 99 3d 2f 4c c5 3c 29 a4 2f bb
       0.03272105 0.07499831 0.024084179 -0.0026800728
000370 d1 80 a5 bb 14 f8 b2 bd f2 de 79 3b 1a e8 c8 bc
       -0.0050507565 -0.087387234 0.003812727 -0.024524737
000380 84 79 8e bd 4f 4a ba bb c5 b1 52 bd b3 17 97 3b
       -0.06956771 -0.005685128 -0.051439065 0.0046109795
000390 5a d2 ac bc fa aa 6a bd 50 bf 9a 3c 79 2c 41 3d
       -0.021096397 -0.057291962 0.018890053 0.047161553
0003a0 d1 98 cb 3c 35 3d 34 bc 8b e3 2f bd 72 99 a0 bb
       0.024853142 -0.011000921 -0.04294161 -0.0049011046
0003b0 16 8d 2d 3d cd 7d e6 3c 53 02 f7 bc 28 83 71 bd
       0.04237088 0.028136158 -0.030152475 -0.05896297
0003c0 ee e1 13 39 42 14 60 bb f0 59 20 bd 6e 32 2f bc
       0.00014103178 -0.0034191762 -0.03914827 -0.010693176
0003d0 a4 a9 99 3c 8d d3 89 3d 74 89 e3 3c 6b d8 91 3d
       0.018757649 0.06729803 0.027775504 0.071213566
0003e0 0e c3 a7 3c da a3 ef b9 bc b4 21 ba 9b 9b 0f bc
       0.020478752 -0.0004570771 -0.0006168594 -0.008765127
0003f0 3c 79 b3 bc 88 d6 23 bd c6 a4 e9 3c 7d a8 dd 3c
       -0.021908395 -0.039999515 0.028520953 0.02705788

action_model._continuous_distribution.mu.bias f4 [3]
000000 bb 47 55 3d 84 e7 e9 3b 04 17 57 ba
       0.05207036 0.0071381945 -0.0008205029

onnx::Div_51 f4 [25]
000000 fc d8 28 43 93 0b 0d 3b ca df af 42 e5 d0 87 3a
       168.8476 0.0021521791 87.93709 0.0010361938
000010 e4 d3 38 3f e5 d0 87 3a e6 9e 30 3f 5c 6f bd 3e
       0.7219832 0.0010361938 0.6899246 0.36999023
000020 3a 85 ab 42 fd 14 02 3f 5b 40 13 42 2b 7b ff 3e
       85.76021 0.50813276 36.812847 0.49898657
000030 d3 3f 04 43 fe fe b3 3f 76 d1 6c 42 5d 56 bd 3e
       132.24931 1.4062192 59.20455 0.36979952
000040 9e 23 1f 43 0f 45 68 3e 9d 54 9f 42 4f 08 81 43
       159.13913 0.22682594 79.66526 258.0649
000050 42 98 6d 43 29 ff 5b 43 f0 4b 7b 41 a4 6a 58 41
       237.59476 219.99672 15.706039 13.526035
000060 8b d2 50 41
       13.051402
